…
I0323 23:07:31.278714 31804 upgrade_proto.cpp:66] Attempting to upgrade input file specified using deprecated input fields: deploy.prototxt
I0323 23:07:31.279696 31804 upgrade_proto.cpp:69] Successfully upgraded file specified using deprecated input fields.
W0323 23:07:31.279696] Note that future Caffe releases will only support input layers and not input fields.
I0323 23:07:31.282698 31804 net.cpp:49] Initializing net from parameters: 
state {
  phase: TEST
}
layer {
  name: "input"
  type: "Input"
  top: "data"
  input_param {
    shape {
      dim: 1
      dim: 3
      dim: 224
      dim: 224
    }
  }
}
layer {
  name: "conv1/7x7_s2"
  type: "Convolution"
  bottom: "data"
  top: "conv1/7x7_s2"
  param {
    lr_mult: 1
    decay_mult: 1
  }
  param {
    lr_mult: 2
    decay_mult: 0
  }
  convolution_param {
    num_output: 64
    pad: 3
    kernel_size: 7
    stride: 2
    weight_filler {
      type: "xavier"
      std: 0.1
    }
    bias_filler {
      type: "constant"
      value: 0.2
    }
  }
}
layer {
  name: "conv1/relu_7x7"
  type: "ReLU"
  bottom: "conv1/7x7_s2"
  top: "conv1/7x7_s2"
}
layer {
  name: "pool1/3x3_s2"
  type: "Pooling"
  bottom: "conv1/7x7_s2"
  top: "pool1/3x3_s2"
  pooling_param {
    pool: MAX
    kernel_size: 3
    stride: 2
  }
}
layer {
  name: "pool1/norm1"
  type: "LRN"
  bottom: "pool1/3x3_s2"
  top: "pool1/norm1"
  lrn_param {
    local_size: 5
    alpha: 0.0001
    beta: 0.75
  }
}
layer {
  name: "conv2/3x3_reduce"
  type: "Convolution"
  bottom: "pool1/norm1"
  top: "conv2/3x3_reduce"
  param {
    lr_mult: 1
    decay_mult: 1
  }
  param {
    lr_mult: 2
    decay_mult: 0
  }
  convolution_param {
    num_output: 64
    kernel_size: 1
    weight_filler {
      type: "xavier"
      std: 0.1
    }
    bias_filler {
      type: "constant"
      value: 0.2
    }
  }
}
layer {
  name: "conv2/relu_3x3_reduce"
  type: "ReLU"
  bottom: "conv2/3x3_reduce"
  top: "conv2/3x3_reduce"
}
layer {
  name: "conv2/3x3"
  type: "Convolution"
  bottom: "conv2/3x3_reduce"
  top: "conv2/3x3"
  param {
    lr_mult: 1
    decay_mult: 1
  }
  param {
    lr_mult: 2
    decay_mult: 0
  }
  convolution_param {
    num_output: 192
    pad: 1
    kernel_size: 3
    weight_filler {
      type: "xavier"
      std: 0.03
    }
    bias_filler {
      type: "constant"
      value: 0.2
    }
  }
}
layer {
  name: "conv2/relu_3x3"
  type: "ReLU"
  bottom: "conv2/3x3"
  top: "conv2/3x3"
}
layer {
  name: "conv2/norm2"
  type: "LRN"
  bottom: "conv2/3x3"
  top: "conv2/norm2"
  lrn_param {
    local_size: 5
    alpha: 0.0001
    beta: 0.75
  }
}
layer {
  name: "pool2/3x3_s2"
  type: "Pooling"
  bottom: "conv2/norm2"
  top: "pool2/3x3_s2"
  pooling_param {
    pool: MAX
    kernel_size: 3
    stride: 2
  }
}
layer {
  name: "inception_3a/1x1"
  type: "Convolution"
  bottom: "pool2/3x3_s2"
  top: "inception_3a/1x1"
  param {
    lr_mult: 1
    decay_mult: 1
  }
  param {
    lr_mult: 2
    decay_mult: 0
  }
  convolution_param {
    num_output: 64
    kernel_size: 1
    weight_filler {
      type: "xavier"
      std: 0.03
    }
    bias_filler {
      type: "constant"
      value: 0.2
    }
  }
}
layer {
  name: "inception_3a/relu_1x1"
  type: "ReLU"
  bottom: "inception_3a/1x1"
  top: "inception_3a/1x1"
}
layer {
  name: "inception_3a/3x3_reduce"
  type: "Convolution"
  bottom: "pool2/3x3_s2"
  top: "inception_3a/3x3_reduce"
  param {
    lr_mult: 1
    decay_mult: 1
  }
  param {
    lr_mult: 2
    decay_mult: 0
  }
  convolution_param {
    num_output: 96
    kernel_size: 1
    weight_filler {
      type: "xavier"
      std: 0.09
    }
    bias_filler {
      type: "constant"
      value: 0.2
    }
  }
}
layer {
  name: "inception_3a/relu_3x3_reduce"
  type: "ReLU"
  bottom: "inception_3a/3x3_reduce"
  top: "inception_3a/3x3_reduce"
}
layer {
  name: "inception_3a/3x3"
  type: "Convolution"
  bottom: "inception_3a/3x3_reduce"
  top: "inception_3a/3x3"
  param {
    lr_mult: 1
    decay_mult: 1
  }
  param {
    lr_mult: 2
    decay_mult: 0
  }
  convolution_param {
    num_output: 128
    pad: 1
    kernel_size: 3
    weight_filler {
      type: "xavier"
      std: 0.03
    }
    bias_filler {
      type: "constant"
      value: 0.2
    }
  }
}
layer {
  name: "inception_3a/relu_3x3"
  type: "ReLU"
  bottom: "inception_3a/3x3"
  top: "inception_3a/3x3"
}
layer {
  name: "inception_3a/5x5_reduce"
  type: "Convolution"
  bottom: "pool2/3x3_s2"
  top: "inception_3a/5x5_reduce"
  param {
    lr_mult: 1
    decay_mult: 1
  }
  param {
    lr_mult: 2
    decay_mult: 0
  }
  convolution_param {
    num_output: 16
    kernel_size: 1
    weight_filler {
      type: "xavier"
      std: 0.2
    }
    bias_filler {
      type: "constant"
      value: 0.2
    }
  }
}
layer {
  name: "inception_3a/relu_5x5_reduce"
  type: "ReLU"
  bottom: "inception_3a/5x5_reduce"
  top: "inception_3a/5x5_reduce"
}
layer {
  name: "inception_3a/5x5"
  type: "Convolution"
  bottom: "inception_3a/5x5_reduce"
  top: "inception_3a/5x5"
  param {
    lr_mult: 1
    decay_mult: 1
  }
  param {
    lr_mult: 2
    decay_mult: 0
  }
  convolution_param {
    num_output: 32
    pad: 2
    kernel_size: 5
    weight_filler {
      type: "xavier"
      std: 0.03
    }
    bias_filler {
      type: "constant"
      value: 0.2
    }
  }
}
layer {
  name: "inception_3a/relu_5x5"
  type: "ReLU"
  bottom: "inception_3a/5x5"
  top: "inception_3a/5x5"
}
layer {
  name: "inception_3a/pool"
  type: "Pooling"
  bottom: "pool2/3x3_s2"
  top: "inception_3a/pool"
  pooling_param {
    pool: MAX
    kernel_size: 3
    stride: 1
    pad: 1
  }
}
layer {
  name: "inception_3a/pool_proj"
  type: "Convolution"
  bottom: "inception_3a/pool"
  top: "inception_3a/pool_proj"
  param {
    lr_mult: 1
    decay_mult: 1
  }
  param {
    lr_mult: 2
    decay_mult: 0
  }
  convolution_param {
    num_output: 32
    kernel_size: 1
    weight_filler {
      type: "xavier"
      std: 0.1
    }
    bias_filler {
      type: "constant"
      value: 0.2
    }
  }
}
layer {
  name: "inception_3a/relu_pool_proj"
  type: "ReLU"
  bottom: "inception_3a/pool_proj"
  top: "inception_3a/pool_proj"
}
layer {
  name: "inception_3a/output"
  type: "Concat"
  bottom: "inception_3a/1x1"
  bottom: "inception_3a/3x3"
  bottom: "inception_3a/5x5"
  bottom: "inception_3a/pool_proj"
  top: "inception_3a/output"
}
layer {
  name: "inception_3b/1x1"
  type: "Convolution"
  bottom: "inception_3a/output"
  top: "inception_3b/1x1"
  param {
    lr_mult: 1
    decay_mult: 1
  }
  param {
    lr_mult: 2
    decay_mult: 0
  }
  convolution_param {
    num_output: 128
    kernel_size: 1
    weight_filler {
      type: "xavier"
      std: 0.03
    }
    bias_filler {
      type: "constant"
      value: 0.2
    }
  }
}
layer {
  name: "inception_3b/relu_1x1"
  type: "ReLU"
  bottom: "inception_3b/1x1"
  top: "inception_3b/1x1"
}
layer {
  name: "inception_3b/3x3_reduce"
  type: "Convolution"
  bottom: "inception_3a/output"
  top: "inception_3b/3x3_reduce"
  param {
    lr_mult: 1
    decay_mult: 1
  }
  param {
    lr_mult: 2
    decay_mult: 0
  }
  convolution_param {
    num_output: 128
    kernel_size: 1
    weight_filler {
      type: "xavier"
      std: 0.09
    }
    bias_filler {
      type: "constant"
      value: 0.2
    }
  }
}
layer {
  name: "inception_3b/relu_3x3_reduce"
  type: "ReLU"
  bottom: "inception_3b/3x3_reduce"
  top: "inception_3b/3x3_reduce"
}
layer {
  name: "inception_3b/3x3"
  type: "Convolution"
  bottom: "inception_3b/3x3_reduce"
  top: "inception_3b/3x3"
  param {
    lr_mult: 1
    decay_mult: 1
  }
  param {
    lr_mult: 2
    decay_mult: 0
  }
  convolution_param {
    num_output: 192
    pad: 1
    kernel_size: 3
    weight_filler {
      type: "xavier"
      std: 0.03
    }
    bias_filler {
      type: "constant"
      value: 0.2
    }
  }
}
layer {
  name: "inception_3b/relu_3x3"
  type: "ReLU"
  bottom: "inception_3b/3x3"
  top: "inception_3b/3x3"
}
layer {
  name: "inception_3b/5x5_reduce"
  type: "Convolution"
  bottom: "inception_3a/output"
  top: "inception_3b/5x5_reduce"
  param {
    lr_mult: 1
    decay_mult: 1
  }
  param {
    lr_mult: 2
    decay_mult: 0
  }
  convolution_param {
    num_output: 32
    kernel_size: 1
    weight_filler {
      type: "xavier"
      std: 0.2
    }
    bias_filler {
      type: "constant"
      value: 0.2
    }
  }
}
layer {
  name: "inception_3b/relu_5x5_reduce"
  type: "ReLU"
  bottom: "inception_3b/5x5_reduce"
  top: "inception_3b/5x5_reduce"
}
layer {
  name: "inception_3b/5x5"
  type: "Convolution"
  bottom: "inception_3b/5x5_reduce"
  top: "inception_3b/5x5"
  param {
    lr_mult: 1
    decay_mult: 1
  }
  param {
    lr_mult: 2
    decay_mult: 0
  }
  convolution_param {
    num_output: 96
    pad: 2
    kernel_size: 5
    weight_filler {
      type: "xavier"
      std: 0.03
    }
    bias_filler {
      type: "constant"
      value: 0.2
    }
  }
}
layer {
  name: "inception_3b/relu_5x5"
  type: "ReLU"
  bottom: "inception_3b/5x5"
  top: "inception_3b/5x5"
}
layer {
  name: "inception_3b/pool"
  type: "Pooling"
  bottom: "inception_3a/output"
  top: "inception_3b/pool"
  pooling_param {
    pool: MAX
    kernel_size: 3
    stride: 1
    pad: 1
  }
}
layer {
  name: "inception_3b/pool_proj"
  type: "Convolution"
  bottom: "inception_3b/pool"
  top: "inception_3b/pool_proj"
  param {
    lr_mult: 1
    decay_mult: 1
  }
  param {
    lr_mult: 2
    decay_mult: 0
  }
  convolution_param {
    num_output: 64
    kernel_size: 1
    weight_filler {
      type: "xavier"
      std: 0.1
    }
    bias_filler {
      type: "constant"
      value: 0.2
    }
  }
}
layer {
  name: "inception_3b/relu_pool_proj"
  type: "ReLU"
  bottom: "inception_3b/pool_proj"
  top: "inception_3b/pool_proj"
}
layer {
  name: "inception_3b/output"
  type: "Concat"
  bottom: "inception_3b/1x1"
  bottom: "inception_3b/3x3"
  bottom: "inception_3b/5x5"
  bottom: "inception_3b/pool_proj"
  top: "inception_3b/output"
}
layer {
  name: "pool3/3x3_s2"
  type: "Pooling"
  bottom: "inception_3b/output"
  top: "pool3/3x3_s2"
  pooling_param {
    pool: MAX
    kernel_size: 3
    stride: 2
  }
}
layer {
  name: "inception_4a/1x1"
  type: "Convolution"
  bottom: "pool3/3x3_s2"
  top: "inception_4a/1x1"
  param {
    lr_mult: 1
    decay_mult: 1
  }
  param {
    lr_mult: 2
    decay_mult: 0
  }
  convolution_param {
    num_output: 192
    kernel_size: 1
    weight_filler {
      type: "xavier"
      std: 0.03
    }
    bias_filler {
      type: "constant"
      value: 0.2
    }
  }
}
layer {
  name: "inception_4a/relu_1x1"
  type: "ReLU"
  bottom: "inception_4a/1x1"
  top: "inception_4a/1x1"
}
layer {
  name: "inception_4a/3x3_reduce"
  type: "Convolution"
  bottom: "pool3/3x3_s2"
  top: "inception_4a/3x3_reduce"
  param {
    lr_mult: 1
    decay_mult: 1
  }
  param {
    lr_mult: 2
    decay_mult: 0
  }
  convolution_param {
    num_output: 96
    kernel_size: 1
    weight_filler {
      type: "xavier"
      std: 0.09
    }
    bias_filler {
      type: "constant"
      value: 0.2
    }
  }
}
layer {
  name: "inception_4a/relu_3x3_reduce"
  type: "ReLU"
  bottom: "inception_4a/3x3_reduce"
  top: "inception_4a/3x3_reduce"
}
layer {
  name: "inception_4a/3x3"
  type: "Convolution"
  bottom: "inception_4a/3x3_reduce"
  top: "inception_4a/3x3"
  param {
    lr_mult: 1
    decay_mult: 1
  }
  param {
    lr_mult: 2
    decay_mult: 0
  }
  convolution_param {
    num_output: 208
    pad: 1
    kernel_size: 3
    weight_filler {
      type: "xavier"
      std: 0.03
    }
    bias_filler {
      type: "constant"
      value: 0.2
    }
  }
}
layer {
  name: "inception_4a/relu_3x3"
  type: "ReLU"
  bottom: "inception_4a/3x3"
  top: "inception_4a/3x3"
}
layer {
  name: "inception_4a/5x5_reduce"
  type: "Convolution"
  bottom: "pool3/3x3_s2"
  top: "inception_4a/5x5_reduce"
  param {
    lr_mult: 1
    decay_mult: 1
  }
  param {
    lr_mult: 2
    decay_mult: 0
  }
  convolution_param {
    num_output: 16
    kernel_size: 1
    weight_filler {
      type: "xavier"
      std: 0.2
    }
    bias_filler {
      type: "constant"
      value: 0.2
    }
  }
}
layer {
  name: "inception_4a/relu_5x5_reduce"
  type: "ReLU"
  bottom: "inception_4a/5x5_reduce"
  top: "inception_4a/5x5_reduce"
}
layer {
  name: "inception_4a/5x5"
  type: "Convolution"
  bottom: "inception_4a/5x5_reduce"
  top: "inception_4a/5x5"
  param {
    lr_mult: 1
    decay_mult: 1
  }
  param {
    lr_mult: 2
    decay_mult: 0
  }
  convolution_param {
    num_output: 48
    pad: 2
    kernel_size: 5
    weight_filler {
      type: "xavier"
      std: 0.03
    }
    bias_filler {
      type: "constant"
      value: 0.2
    }
  }
}
layer {
  name: "inception_4a/relu_5x5"
  type: "ReLU"
  bottom: "inception_4a/5x5"
  top: "inception_4a/5x5"
}
layer {
  name: "inception_4a/pool"
  type: "Pooling"
  bottom: "pool3/3x3_s2"
  top: "inception_4a/pool"
  pooling_param {
    pool: MAX
    kernel_size: 3
    stride: 1
    pad: 1
  }
}
layer {
  name: "inception_4a/pool_proj"
  type: "Convolution"
  bottom: "inception_4a/pool"
  top: "inception_4a/pool_proj"
  param {
    lr_mult: 1
    decay_mult: 1
  }
  param {
    lr_mult: 2
    decay_mult: 0
  }
  convolution_param {
    num_output: 64
    kernel_size: 1
    weight_filler {
      type: "xavier"
      std: 0.1
    }
    bias_filler {
      type: "constant"
      value: 0.2
    }
  }
}
layer {
  name: "inception_4a/relu_pool_proj"
  type: "ReLU"
  bottom: "inception_4a/pool_proj"
  top: "inception_4a/pool_proj"
}
layer {
  name: "inception_4a/output"
  type: "Concat"
  bottom: "inception_4a/1x1"
  bottom: "inception_4a/3x3"
  bottom: "inception_4a/5x5"
  bottom: "inception_4a/pool_proj"
  top: "inception_4a/output"
}
layer {
  name: "inception_4b/1x1"
  type: "Convolution"
  bottom: "inception_4a/output"
  top: "inception_4b/1x1"
  param {
    lr_mult: 1
    decay_mult: 1
  }
  param {
    lr_mult: 2
    decay_mult: 0
  }
  convolution_param {
    num_output: 160
    kernel_size: 1
    weight_filler {
      type: "xavier"
      std: 0.03
    }
    bias_filler {
      type: "constant"
      value: 0.2
    }
  }
}
layer {
  name: "inception_4b/relu_1x1"
  type: "ReLU"
  bottom: "inception_4b/1x1"
  top: "inception_4b/1x1"
}
layer {
  name: "inception_4b/3x3_reduce"
  type: "Convolution"
  bottom: "inception_4a/output"
  top: "inception_4b/3x3_reduce"
  param {
    lr_mult: 1
    decay_mult: 1
  }
  param {
    lr_mult: 2
    decay_mult: 0
  }
  convolution_param {
    num_output: 112
    kernel_size: 1
    weight_filler {
      type: "xavier"
      std: 0.09
    }
    bias_filler {
      type: "constant"
      value: 0.2
    }
  }
}
layer {
  name: "inception_4b/relu_3x3_reduce"
  type: "ReLU"
  bottom: "inception_4b/3x3_reduce"
  top: "inception_4b/3x3_reduce"
}
layer {
  name: "inception_4b/3x3"
  type: "Convolution"
  bottom: "inception_4b/3x3_reduce"
  top: "inception_4b/3x3"
  param {
    lr_mult: 1
    decay_mult: 1
  }
  param {
    lr_mult: 2
    decay_mult: 0
  }
  convolution_param {
    num_output: 224
    pad: 1
    kernel_size: 3
    weight_filler {
      type: "xavier"
      std: 0.03
    }
    bias_filler {
      type: "constant"
      value: 0.2
    }
  }
}
layer {
  name: "inception_4b/relu_3x3"
  type: "ReLU"
  bottom: "inception_4b/3x3"
  top: "inception_4b/3x3"
}
layer {
  name: "inception_4b/5x5_reduce"
  type: "Convolution"
  bottom: "inception_4a/output"
  top: "inception_4b/5x5_reduce"
  param {
    lr_mult: 1
    decay_mult: 1
  }
  param {
    lr_mult: 2
    decay_mult: 0
  }
  convolution_param {
    num_output: 24
    kernel_size: 1
    weight_filler {
      type: "xavier"
      std: 0.2
    }
    bias_filler {
      type: "constant"
      value: 0.2
    }
  }
}
layer {
  name: "inception_4b/relu_5x5_reduce"
  type: "ReLU"
  bottom: "inception_4b/5x5_reduce"
  top: "inception_4b/5x5_reduce"
}
layer {
  name: "inception_4b/5x5"
  type: "Convolution"
  bottom: "inception_4b/5x5_reduce"
  top: "inception_4b/5x5"
  param {
    lr_mult: 1
    decay_mult: 1
  }
  param {
    lr_mult: 2
    decay_mult: 0
  }
  convolution_param {
    num_output: 64
    pad: 2
    kernel_size: 5
    weight_filler {
      type: "xavier"
      std: 0.03
    }
    bias_filler {
      type: "constant"
      value: 0.2
    }
  }
}
layer {
  name: "inception_4b/relu_5x5"
  type: "ReLU"
  bottom: "inception_4b/5x5"
  top: "inception_4b/5x5"
}
layer {
  name: "inception_4b/pool"
  type: "Pooling"
  bottom: "inception_4a/output"
  top: "inception_4b/pool"
  pooling_param {
    pool: MAX
    kernel_size: 3
    stride: 1
    pad: 1
  }
}
layer {
  name: "inception_4b/pool_proj"
  type: "Convolution"
  bottom: "inception_4b/pool"
  top: "inception_4b/pool_proj"
  param {
    lr_mult: 1
    decay_mult: 1
  }
  param {
    lr_mult: 2
    decay_mult: 0
  }
  convolution_param {
    num_output: 64
    kernel_size: 1
    weight_filler {
      type: "xavier"
      std: 0.1
    }
    bias_filler {
      type: "constant"
      value: 0.2
    }
  }
}
layer {
  name: "inception_4b/relu_pool_proj"
  type: "ReLU"
  bottom: "inception_4b/pool_proj"
  top: "inception_4b/pool_proj"
}
layer {
  name: "inception_4b/output"
  type: "Concat"
  bottom: "inception_4b/1x1"
  bottom: "inception_4b/3x3"
  bottom: "inception_4b/5x5"
  bottom: "inception_4b/pool_proj"
  top: "inception_4b/output"
}
layer {
  name: "inception_4c/1x1"
  type: "Convolution"
  bottom: "inception_4b/output"
  top: "inception_4c/1x1"
  param {
    lr_mult: 1
    decay_mult: 1
  }
  param {
    lr_mult: 2
    decay_mult: 0
  }
  convolution_param {
    num_output: 128
    kernel_size: 1
    weight_filler {
      type: "xavier"
      std: 0.03
    }
    bias_filler {
      type: "constant"
      value: 0.2
    }
  }
}
layer {
  name: "inception_4c/relu_1x1"
  type: "ReLU"
  bottom: "inception_4c/1x1"
  top: "inception_4c/1x1"
}
layer {
  name: "inception_4c/3x3_reduce"
  type: "Convolution"
  bottom: "inception_4b/output"
  top: "inception_4c/3x3_reduce"
  param {
    lr_mult: 1
    decay_mult: 1
  }
  param {
    lr_mult: 2
    decay_mult: 0
  }
  convolution_param {
    num_output: 128
    kernel_size: 1
    weight_filler {
      type: "xavier"
      std: 0.09
    }
    bias_filler {
      type: "constant"
      value: 0.2
    }
  }
}
layer {
  name: "inception_4c/relu_3x3_reduce"
  type: "ReLU"
  bottom: "inception_4c/3x3_reduce"
  top: "inception_4c/3x3_reduce"
}
layer {
  name: "inception_4c/3x3"
  type: "Convolution"
  bottom: "inception_4c/3x3_reduce"
  top: "inception_4c/3x3"
  param {
    lr_mult: 1
    decay_mult: 1
  }
  param {
    lr_mult: 2
    decay_mult: 0
  }
  convolution_param {
    num_output: 256
    pad: 1
    kernel_size: 3
    weight_filler {
      type: "xavier"
      std: 0.03
    }
    bias_filler {
      type: "constant"
      value: 0.2
    }
  }
}
layer {
  name: "inception_4c/relu_3x3"
  type: "ReLU"
  bottom: "inception_4c/3x3"
  top: "inception_4c/3x3"
}
layer {
  name: "inception_4c/5x5_reduce"
  type: "Convolution"
  bottom: "inception_4b/output"
  top: "inception_4c/5x5_reduce"
  param {
    lr_mult: 1
    decay_mult: 1
  }
  param {
    lr_mult: 2
    decay_mult: 0
  }
  convolution_param {
    num_output: 24
    kernel_size: 1
    weight_filler {
      type: "xavier"
      std: 0.2
    }
    bias_filler {
      type: "constant"
      value: 0.2
    }
  }
}
layer {
  name: "inception_4c/relu_5x5_reduce"
  type: "ReLU"
  bottom: "inception_4c/5x5_reduce"
  top: "inception_4c/5x5_reduce"
}
layer {
  name: "inception_4c/5x5"
  type: "Convolution"
  bottom: "inception_4c/5x5_reduce"
  top: "inception_4c/5x5"
  param {
    lr_mult: 1
    decay_mult: 1
  }
  param {
    lr_mult: 2
    decay_mult: 0
  }
  convolution_param {
    num_output: 64
    pad: 2
    kernel_size: 5
    weight_filler {
      type: "xavier"
      std: 0.03
    }
    bias_filler {
      type: "constant"
      value: 0.2
    }
  }
}
layer {
  name: "inception_4c/relu_5x5"
  type: "ReLU"
  bottom: "inception_4c/5x5"
  top: "inception_4c/5x5"
}
layer {
  name: "inception_4c/pool"
  type: "Pooling"
  bottom: "inception_4b/output"
  top: "inception_4c/pool"
  pooling_param {
    pool: MAX
    kernel_size: 3
    stride: 1
    pad: 1
  }
}
layer {
  name: "inception_4c/pool_proj"
  type: "Convolution"
  bottom: "inception_4c/pool"
  top: "inception_4c/pool_proj"
  param {
    lr_mult: 1
    decay_mult: 1
  }
  param {
    lr_mult: 2
    decay_mult: 0
  }
  convolution_param {
    num_output: 64
    kernel_size: 1
    weight_filler {
      type: "xavier"
      std: 0.1
    }
    bias_filler {
      type: "constant"
      value: 0.2
    }
  }
}
layer {
  name: "inception_4c/relu_pool_proj"
  type: "ReLU"
  bottom: "inception_4c/pool_proj"
  top: "inception_4c/pool_proj"
}
layer {
  name: "inception_4c/output"
  type: "Concat"
  bottom: "inception_4c/1x1"
  bottom: "inception_4c/3x3"
  bottom: "inception_4c/5x5"
  bottom: "inception_4c/pool_proj"
  top: "inception_4c/output"
}
layer {
  name: "inception_4d/1x1"
  type: "Convolution"
  bottom: "inception_4c/output"
  top: "inception_4d/1x1"
  param {
    lr_mult: 1
    decay_mult: 1
  }
  param {
    lr_mult: 2
    decay_mult: 0
  }
  convolution_param {
    num_output: 112
    kernel_size: 1
    weight_filler {
      type: "xavier"
      std: 0.03
    }
    bias_filler {
      type: "constant"
      value: 0.2
    }
  }
}
layer {
  name: "inception_4d/relu_1x1"
  type: "ReLU"
  bottom: "inception_4d/1x1"
  top: "inception_4d/1x1"
}
layer {
  name: "inception_4d/3x3_reduce"
  type: "Convolution"
  bottom: "inception_4c/output"
  top: "inception_4d/3x3_reduce"
  param {
    lr_mult: 1
    decay_mult: 1
  }
  param {
    lr_mult: 2
    decay_mult: 0
  }
  convolution_param {
    num_output: 144
    kernel_size: 1
    weight_filler {
      type: "xavier"
      std: 0.09
    }
    bias_filler {
      type: "constant"
      value: 0.2
    }
  }
}
layer {
  name: "inception_4d/relu_3x3_reduce"
  type: "ReLU"
  bottom: "inception_4d/3x3_reduce"
  top: "inception_4d/3x3_reduce"
}
layer {
  name: "inception_4d/3x3"
  type: "Convolution"
  bottom: "inception_4d/3x3_reduce"
  top: "inception_4d/3x3"
  param {
    lr_mult: 1
    decay_mult: 1
  }
  param {
    lr_mult: 2
    decay_mult: 0
  }
  convolution_param {
    num_output: 288
    pad: 1
    kernel_size: 3
    weight_filler {
      type: "xavier"
      std: 0.03
    }
    bias_filler {
      type: "constant"
      value: 0.2
    }
  }
}
layer {
  name: "inception_4d/relu_3x3"
  type: "ReLU"
  bottom: "inception_4d/3x3"
  top: "inception_4d/3x3"
}
layer {
  name: "inception_4d/5x5_reduce"
  type: "Convolution"
  bottom: "inception_4c/output"
  top: "inception_4d/5x5_reduce"
  param {
    lr_mult: 1
    decay_mult: 1
  }
  param {
    lr_mult: 2
    decay_mult: 0
  }
  convolution_param {
    num_output: 32
    kernel_size: 1
    weight_filler {
      type: "xavier"
      std: 0.2
    }
    bias_filler {
      type: "constant"
      value: 0.2
    }
  }
}
layer {
  name: "inception_4d/relu_5x5_reduce"
  type: "ReLU"
  bottom: "inception_4d/5x5_reduce"
  top: "inception_4d/5x5_reduce"
}
layer {
  name: "inception_4d/5x5"
  type: "Convolution"
  bottom: "inception_4d/5x5_reduce"
  top: "inception_4d/5x5"
  param {
    lr_mult: 1
    decay_mult: 1
  }
  param {
    lr_mult: 2
    decay_mult: 0
  }
  convolution_param {
    num_output: 64
    pad: 2
    kernel_size: 5
    weight_filler {
      type: "xavier"
      std: 0.03
    }
    bias_filler {
      type: "constant"
      value: 0.2
    }
  }
}
layer {
  name: "inception_4d/relu_5x5"
  type: "ReLU"
  bottom: "inception_4d/5x5"
  top: "inception_4d/5x5"
}
layer {
  name: "inception_4d/pool"
  type: "Pooling"
  bottom: "inception_4c/output"
  top: "inception_4d/pool"
  pooling_param {
    pool: MAX
    kernel_size: 3
    stride: 1
    pad: 1
  }
}
layer {
  name: "inception_4d/pool_proj"
  type: "Convolution"
  bottom: "inception_4d/pool"
  top: "inception_4d/pool_proj"
  param {
    lr_mult: 1
    decay_mult: 1
  }
  param {
    lr_mult: 2
    decay_mult: 0
  }
  convolution_param {
    num_output: 64
    kernel_size: 1
    weight_filler {
      type: "xavier"
      std: 0.1
    }
    bias_filler {
      type: "constant"
      value: 0.2
    }
  }
}
layer {
  name: "inception_4d/relu_pool_proj"
  type: "ReLU"
  bottom: "inception_4d/pool_proj"
  top: "inception_4d/pool_proj"
}
layer {
  name: "inception_4d/output"
  type: "Concat"
  bottom: "inception_4d/1x1"
  bottom: "inception_4d/3x3"
  bottom: "inception_4d/5x5"
  bottom: "inception_4d/pool_proj"
  top: "inception_4d/output"
}
layer {
  name: "inception_4e/1x1"
  type: "Convolution"
  bottom: "inception_4d/output"
  top: "inception_4e/1x1"
  param {
    lr_mult: 1
    decay_mult: 1
  }
  param {
    lr_mult: 2
    decay_mult: 0
  }
  convolution_param {
    num_output: 256
    kernel_size: 1
    weight_filler {
      type: "xavier"
      std: 0.03
    }
    bias_filler {
      type: "constant"
      value: 0.2
    }
  }
}
layer {
  name: "inception_4e/relu_1x1"
  type: "ReLU"
  bottom: "inception_4e/1x1"
  top: "inception_4e/1x1"
}
layer {
  name: "inception_4e/3x3_reduce"
  type: "Convolution"
  bottom: "inception_4d/output"
  top: "inception_4e/3x3_reduce"
  param {
    lr_mult: 1
    decay_mult: 1
  }
  param {
    lr_mult: 2
    decay_mult: 0
  }
  convolution_param {
    num_output: 160
    kernel_size: 1
    weight_filler {
      type: "xavier"
      std: 0.09
    }
    bias_filler {
      type: "constant"
      value: 0.2
    }
  }
}
layer {
  name: "inception_4e/relu_3x3_reduce"
  type: "ReLU"
  bottom: "inception_4e/3x3_reduce"
  top: "inception_4e/3x3_reduce"
}
layer {
  name: "inception_4e/3x3"
  type: "Convolution"
  bottom: "inception_4e/3x3_reduce"
  top: "inception_4e/3x3"
  param {
    lr_mult: 1
    decay_mult: 1
  }
  param {
    lr_mult: 2
    decay_mult: 0
  }
  convolution_param {
    num_output: 320
    pad: 1
    kernel_size: 3
    weight_filler {
      type: "xavier"
      std: 0.03
    }
    bias_filler {
      type: "constant"
      value: 0.2
    }
  }
}
layer {
  name: "inception_4e/relu_3x3"
  type: "ReLU"
  bottom: "inception_4e/3x3"
  top: "inception_4e/3x3"
}
layer {
  name: "inception_4e/5x5_reduce"
  type: "Convolution"
  bottom: "inception_4d/output"
  top: "inception_4e/5x5_reduce"
  param {
    lr_mult: 1
    decay_mult: 1
  }
  param {
    lr_mult: 2
    decay_mult: 0
  }
  convolution_param {
    num_output: 32
    kernel_size: 1
    weight_filler {
      type: "xavier"
      std: 0.2
    }
    bias_filler {
      type: "constant"
      value: 0.2
    }
  }
}
layer {
  name: "inception_4e/relu_5x5_reduce"
  type: "ReLU"
  bottom: "inception_4e/5x5_reduce"
  top: "inception_4e/5x5_reduce"
}
layer {
  name: "inception_4e/5x5"
  type: "Convolution"
  bottom: "inception_4e/5x5_reduce"
  top: "inception_4e/5x5"
  param {
    lr_mult: 1
    decay_mult: 1
  }
  param {
    lr_mult: 2
    decay_mult: 0
  }
  convolution_param {
    num_output: 128
    pad: 2
    kernel_size: 5
    weight_filler {
      type: "xavier"
      std: 0.03
    }
    bias_filler {
      type: "constant"
      value: 0.2
    }
  }
}
layer {
  name: "inception_4e/relu_5x5"
  type: "ReLU"
  bottom: "inception_4e/5x5"
  top: "inception_4e/5x5"
}
layer {
  name: "inception_4e/pool"
  type: "Pooling"
  bottom: "inception_4d/output"
  top: "inception_4e/pool"
  pooling_param {
    pool: MAX
    kernel_size: 3
    stride: 1
    pad: 1
  }
}
layer {
  name: "inception_4e/pool_proj"
  type: "Convolution"
  bottom: "inception_4e/pool"
  top: "inception_4e/pool_proj"
  param {
    lr_mult: 1
    decay_mult: 1
  }
  param {
    lr_mult: 2
    decay_mult: 0
  }
  convolution_param {
    num_output: 128
    kernel_size: 1
    weight_filler {
      type: "xavier"
      std: 0.1
    }
    bias_filler {
      type: "constant"
      value: 0.2
    }
  }
}
layer {
  name: "inception_4e/relu_pool_proj"
  type: "ReLU"
  bottom: "inception_4e/pool_proj"
  top: "inception_4e/pool_proj"
}
layer {
  name: "inception_4e/output"
  type: "Concat"
  bottom: "inception_4e/1x1"
  bottom: "inception_4e/3x3"
  bottom: "inception_4e/5x5"
  bottom: "inception_4e/pool_proj"
  top: "inception_4e/output"
}
layer {
  name: "pool4/3x3_s2"
  type: "Pooling"
  bottom: "inception_4e/output"
  top: "pool4/3x3_s2"
  pooling_param {
    pool: MAX
    kernel_size: 3
    stride: 2
  }
}
layer {
  name: "inception_5a/1x1"
  type: "Convolution"
  bottom: "pool4/3x3_s2"
  top: "inception_5a/1x1"
  param {
    lr_mult: 1
    decay_mult: 1
  }
  param {
    lr_mult: 2
    decay_mult: 0
  }
  convolution_param {
    num_output: 256
    kernel_size: 1
    weight_filler {
      type: "xavier"
      std: 0.03
    }
    bias_filler {
      type: "constant"
      value: 0.2
    }
  }
}
layer {
  name: "inception_5a/relu_1x1"
  type: "ReLU"
  bottom: "inception_5a/1x1"
  top: "inception_5a/1x1"
}
layer {
  name: "inception_5a/3x3_reduce"
  type: "Convolution"
  bottom: "pool4/3x3_s2"
  top: "inception_5a/3x3_reduce"
  param {
    lr_mult: 1
    decay_mult: 1
  }
  param {
    lr_mult: 2
    decay_mult: 0
  }
  convolution_param {
    num_output: 160
    kernel_size: 1
    weight_filler {
      type: "xavier"
      std: 0.09
    }
    bias_filler {
      type: "constant"
      value: 0.2
    }
  }
}
layer {
  name: "inception_5a/relu_3x3_reduce"
  type: "ReLU"
  bottom: "inception_5a/3x3_reduce"
  top: "inception_5a/3x3_reduce"
}
layer {
  name: "inception_5a/3x3"
  type: "Convolution"
  bottom: "inception_5a/3x3_reduce"
  top: "inception_5a/3x3"
  param {
    lr_mult: 1
    decay_mult: 1
  }
  param {
    lr_mult: 2
    decay_mult: 0
  }
  convolution_param {
    num_output: 320
    pad: 1
    kernel_size: 3
    weight_filler {
      type: "xavier"
      std: 0.03
    }
    bias_filler {
      type: "constant"
      value: 0.2
    }
  }
}
layer {
  name: "inception_5a/relu_3x3"
  type: "ReLU"
  bottom: "inception_5a/3x3"
  top: "inception_5a/3x3"
}
layer {
  name: "inception_5a/5x5_reduce"
  type: "Convolution"
  bottom: "pool4/3x3_s2"
  top: "inception_5a/5x5_reduce"
  param {
    lr_mult: 1
    decay_mult: 1
  }
  param {
    lr_mult: 2
    decay_mult: 0
  }
  convolution_param {
    num_output: 32
    kernel_size: 1
    weight_filler {
      type: "xavier"
      std: 0.2
    }
    bias_filler {
      type: "constant"
      value: 0.2
    }
  }
}
layer {
  na
I0323 23:07:31.284699 31804 layer_factory.hpp:77] Creating layer input
I0323 23:07:31.284699 31804 net.cpp:91] Creating Layer input
I0323 23:07:31.284699 31804 net.cpp:399] input -> data
I0323 23:07:31.284699 31804 net.cpp:141] Setting up input
I0323 23:07:31.284699 31804 net.cpp:148] Top shape: 1 3 224 224 (150528)
I0323 23:07:31.284699 31804 net.cpp:156] Memory required for data: 602112
I0323 23:07:31.284699 31804 layer_factory.hpp:77] Creating layer conv1/7x7_s2
I0323 23:07:31.284699 31804 net.cpp:91] Creating Layer conv1/7x7_s2
I0323 23:07:31.284699 31804 net.cpp:425] conv1/7x7_s2 <- data
I0323 23:07:31.284699 31804 net.cpp:399] conv1/7x7_s2 -> conv1/7x7_s2
I0323 23:07:31.284699 31804 net.cpp:141] Setting up conv1/7x7_s2
I0323 23:07:31.284699 31804 net.cpp:148] Top shape: 1 64 112 112 (802816)
I0323 23:07:31.284699 31804 net.cpp:156] Memory required for data: 3813376
I0323 23:07:31.284699 31804 layer_factory.hpp:77] Creating layer conv1/relu_7x7
I0323 23:07:31.284699 31804 net.cpp:91] Creating Layer conv1/relu_7x7
I0323 23:07:31.284699 31804 net.cpp:425] conv1/relu_7x7 <- conv1/7x7_s2
I0323 23:07:31.284699 31804 net.cpp:386] conv1/relu_7x7 -> conv1/7x7_s2 (in-place)
I0323 23:07:31.284699 31804 net.cpp:141] Setting up conv1/relu_7x7
I0323 23:07:31.284699 31804 net.cpp:148] Top shape: 1 64 112 112 (802816)
I0323 23:07:31.284699 31804 net.cpp:156] Memory required for data: 7024640
I0323 23:07:31.284699 31804 layer_factory.hpp:77] Creating layer pool1/3x3_s2
I0323 23:07:31.284699 31804 net.cpp:91] Creating Layer pool1/3x3_s2
I0323 23:07:31.284699 31804 net.cpp:425] pool1/3x3_s2 <- conv1/7x7_s2
I0323 23:07:31.284699 31804 net.cpp:399] pool1/3x3_s2 -> pool1/3x3_s2
I0323 23:07:31.284699 31804 net.cpp:141] Setting up pool1/3x3_s2
I0323 23:07:31.284699 31804 net.cpp:148] Top shape: 1 64 56 56 (200704)
I0323 23:07:31.284699 31804 net.cpp:156] Memory required for data: 7827456
I0323 23:07:31.284699 31804 layer_factory.hpp:77] Creating layer pool1/norm1
I0323 23:07:31.284699 31804 net.cpp:91] Creating Layer pool1/norm1
I0323 23:07:31.284699 31804 net.cpp:425] pool1/norm1 <- pool1/3x3_s2
I0323 23:07:31.284699 31804 net.cpp:399] pool1/norm1 -> pool1/norm1
I0323 23:07:31.284699 31804 net.cpp:141] Setting up pool1/norm1
I0323 23:07:31.284699 31804 net.cpp:148] Top shape: 1 64 56 56 (200704)
I0323 23:07:31.284699 31804 net.cpp:156] Memory required for data: 8630272
I0323 23:07:31.284699 31804 layer_factory.hpp:77] Creating layer conv2/3x3_reduce
I0323 23:07:31.284699 31804 net.cpp:91] Creating Layer conv2/3x3_reduce
I0323 23:07:31.284699 31804 net.cpp:425] conv2/3x3_reduce <- pool1/norm1
I0323 23:07:31.284699 31804 net.cpp:399] conv2/3x3_reduce -> conv2/3x3_reduce
I0323 23:07:31.285702 31804 net.cpp:141] Setting up conv2/3x3_reduce
I0323 23:07:31.285702 31804 net.cpp:148] Top shape: 1 64 56 56 (200704)
I0323 23:07:31.285702 31804 net.cpp:156] Memory required for data: 9433088
I0323 23:07:31.285702 31804 layer_factory.hpp:77] Creating layer conv2/relu_3x3_reduce
I0323 23:07:31.285702 31804 net.cpp:91] Creating Layer conv2/relu_3x3_reduce
I0323 23:07:31.285702 31804 net.cpp:425] conv2/relu_3x3_reduce <- conv2/3x3_reduce
I0323 23:07:31.285702 31804 net.cpp:386] conv2/relu_3x3_reduce -> conv2/3x3_reduce (in-place)
I0323 23:07:31.285702 31804 net.cpp:141] Setting up conv2/relu_3x3_reduce
I0323 23:07:31.285702 31804 net.cpp:148] Top shape: 1 64 56 56 (200704)
I0323 23:07:31.285702 31804 net.cpp:156] Memory required for data: 10235904
I0323 23:07:31.285702 31804 layer_factory.hpp:77] Creating layer conv2/3x3
I0323 23:07:31.285702 31804 net.cpp:91] Creating Layer conv2/3x3
I0323 23:07:31.285702 31804 net.cpp:425] conv2/3x3 <- conv2/3x3_reduce
I0323 23:07:31.285702 31804 net.cpp:399] conv2/3x3 -> conv2/3x3
I0323 23:07:31.287701 31804 net.cpp:141] Setting up conv2/3x3
I0323 23:07:31.287701 31804 net.cpp:148] Top shape: 1 192 56 56 (602112)
I0323 23:07:31.287701 31804 net.cpp:156] Memory required for data: 12644352
I0323 23:07:31.287701 31804 layer_factory.hpp:77] Creating layer conv2/relu_3x3
I0323 23:07:31.287701 31804 net.cpp:91] Creating Layer conv2/relu_3x3
I0323 23:07:31.287701 31804 net.cpp:425] conv2/relu_3x3 <- conv2/3x3
I0323 23:07:31.287701 31804 net.cpp:386] conv2/relu_3x3 -> conv2/3x3 (in-place)
I0323 23:07:31.287701 31804 net.cpp:141] Setting up conv2/relu_3x3
I0323 23:07:31.287701 31804 net.cpp:148] Top shape: 1 192 56 56 (602112)
I0323 23:07:31.287701 31804 net.cpp:156] Memory required for data: 15052800
I0323 23:07:31.287701 31804 layer_factory.hpp:77] Creating layer conv2/norm2
I0323 23:07:31.287701 31804 net.cpp:91] Creating Layer conv2/norm2
I0323 23:07:31.287701 31804 net.cpp:425] conv2/norm2 <- conv2/3x3
I0323 23:07:31.287701 31804 net.cpp:399] conv2/norm2 -> conv2/norm2
I0323 23:07:31.287701 31804 net.cpp:141] Setting up conv2/norm2
I0323 23:07:31.287701 31804 net.cpp:148] Top shape: 1 192 56 56 (602112)
I0323 23:07:31.287701 31804 net.cpp:156] Memory required for data: 17461248
I0323 23:07:31.287701 31804 layer_factory.hpp:77] Creating layer pool2/3x3_s2
I0323 23:07:31.287701 31804 net.cpp:91] Creating Layer pool2/3x3_s2
I0323 23:07:31.287701 31804 net.cpp:425] pool2/3x3_s2 <- conv2/norm2
I0323 23:07:31.287701 31804 net.cpp:399] pool2/3x3_s2 -> pool2/3x3_s2
I0323 23:07:31.287701 31804 net.cpp:141] Setting up pool2/3x3_s2
I0323 23:07:31.287701 31804 net.cpp:148] Top shape: 1 192 28 28 (150528)
I0323 23:07:31.287701 31804 net.cpp:156] Memory required for data: 18063360
I0323 23:07:31.287701 31804 layer_factory.hpp:77] Creating layer pool2/3x3_s2_pool2/3x3_s2_0_split
I0323 23:07:31.287701 31804 net.cpp:91] Creating Layer pool2/3x3_s2_pool2/3x3_s2_0_split
I0323 23:07:31.287701 31804 net.cpp:425] pool2/3x3_s2_pool2/3x3_s2_0_split <- pool2/3x3_s2
I0323 23:07:31.287701 31804 net.cpp:399] pool2/3x3_s2_pool2/3x3_s2_0_split -> pool2/3x3_s2_pool2/3x3_s2_0_split_0
I0323 23:07:31.287701 31804 net.cpp:399] pool2/3x3_s2_pool2/3x3_s2_0_split -> pool2/3x3_s2_pool2/3x3_s2_0_split_1
I0323 23:07:31.287701 31804 net.cpp:399] pool2/3x3_s2_pool2/3x3_s2_0_split -> pool2/3x3_s2_pool2/3x3_s2_0_split_2
I0323 23:07:31.287701 31804 net.cpp:399] pool2/3x3_s2_pool2/3x3_s2_0_split -> pool2/3x3_s2_pool2/3x3_s2_0_split_3
I0323 23:07:31.287701 31804 net.cpp:141] Setting up pool2/3x3_s2_pool2/3x3_s2_0_split
I0323 23:07:31.287701 31804 net.cpp:148] Top shape: 1 192 28 28 (150528)
I0323 23:07:31.287701 31804 net.cpp:148] Top shape: 1 192 28 28 (150528)
I0323 23:07:31.287701 31804 net.cpp:148] Top shape: 1 192 28 28 (150528)
I0323 23:07:31.287701 31804 net.cpp:148] Top shape: 1 192 28 28 (150528)
I0323 23:07:31.287701 31804 net.cpp:156] Memory required for data: 20471808
I0323 23:07:31.287701 31804 layer_factory.hpp:77] Creating layer inception_3a/1x1
I0323 23:07:31.287701 31804 net.cpp:91] Creating Layer inception_3a/1x1
I0323 23:07:31.287701 31804 net.cpp:425] inception_3a/1x1 <- pool2/3x3_s2_pool2/3x3_s2_0_split_0
I0323 23:07:31.287701 31804 net.cpp:399] inception_3a/1x1 -> inception_3a/1x1
I0323 23:07:31.287701 31804 net.cpp:141] Setting up inception_3a/1x1
I0323 23:07:31.287701 31804 net.cpp:148] Top shape: 1 64 28 28 (50176)
I0323 23:07:31.287701 31804 net.cpp:156] Memory required for data: 20672512
I0323 23:07:31.287701 31804 layer_factory.hpp:77] Creating layer inception_3a/relu_1x1
I0323 23:07:31.287701 31804 net.cpp:91] Creating Layer inception_3a/relu_1x1
I0323 23:07:31.287701 31804 net.cpp:425] inception_3a/relu_1x1 <- inception_3a/1x1
I0323 23:07:31.287701 31804 net.cpp:386] inception_3a/relu_1x1 -> inception_3a/1x1 (in-place)
I0323 23:07:31.287701 31804 net.cpp:141] Setting up inception_3a/relu_1x1
I0323 23:07:31.287701 31804 net.cpp:148] Top shape: 1 64 28 28 (50176)
I0323 23:07:31.287701 31804 net.cpp:156] Memory required for data: 20873216
I0323 23:07:31.287701 31804 layer_factory.hpp:77] Creating layer inception_3a/3x3_reduce
I0323 23:07:31.287701 31804 net.cpp:91] Creating Layer inception_3a/3x3_reduce
I0323 23:07:31.287701 31804 net.cpp:425] inception_3a/3x3_reduce <- pool2/3x3_s2_pool2/3x3_s2_0_split_1
I0323 23:07:31.287701 31804 net.cpp:399] inception_3a/3x3_reduce -> inception_3a/3x3_reduce
I0323 23:07:31.287701 31804 net.cpp:141] Setting up inception_3a/3x3_reduce
I0323 23:07:31.288704 31804 net.cpp:148] Top shape: 1 96 28 28 (75264)
I0323 23:07:31.288704 31804 net.cpp:156] Memory required for data: 21174272
I0323 23:07:31.288704 31804 layer_factory.hpp:77] Creating layer inception_3a/relu_3x3_reduce
I0323 23:07:31.288704 31804 net.cpp:91] Creating Layer inception_3a/relu_3x3_reduce
I0323 23:07:31.288704 31804 net.cpp:425] inception_3a/relu_3x3_reduce <- inception_3a/3x3_reduce
I0323 23:07:31.288704 31804 net.cpp:386] inception_3a/relu_3x3_reduce -> inception_3a/3x3_reduce (in-place)
I0323 23:07:31.288704 31804 net.cpp:141] Setting up inception_3a/relu_3x3_reduce
I0323 23:07:31.288704 31804 net.cpp:148] Top shape: 1 96 28 28 (75264)
I0323 23:07:31.288704 31804 net.cpp:156] Memory required for data: 21475328
I0323 23:07:31.288704 31804 layer_factory.hpp:77] Creating layer inception_3a/3x3
I0323 23:07:31.288704 31804 net.cpp:91] Creating Layer inception_3a/3x3
I0323 23:07:31.288704 31804 net.cpp:425] inception_3a/3x3 <- inception_3a/3x3_reduce
I0323 23:07:31.288704 31804 net.cpp:399] inception_3a/3x3 -> inception_3a/3x3
I0323 23:07:31.289702 31804 net.cpp:141] Setting up inception_3a/3x3
I0323 23:07:31.289702 31804 net.cpp:148] Top shape: 1 128 28 28 (100352)
I0323 23:07:31.289702 31804 net.cpp:156] Memory required for data: 21876736
I0323 23:07:31.289702 31804 layer_factory.hpp:77] Creating layer inception_3a/relu_3x3
I0323 23:07:31.290704 31804 net.cpp:91] Creating Layer inception_3a/relu_3x3
I0323 23:07:31.290704 31804 net.cpp:425] inception_3a/relu_3x3 <- inception_3a/3x3
I0323 23:07:31.290704 31804 net.cpp:386] inception_3a/relu_3x3 -> inception_3a/3x3 (in-place)
I0323 23:07:31.290704 31804 net.cpp:141] Setting up inception_3a/relu_3x3
I0323 23:07:31.290704 31804 net.cpp:148] Top shape: 1 128 28 28 (100352)
I0323 23:07:31.290704 31804 net.cpp:156] Memory required for data: 22278144
I0323 23:07:31.290704 31804 layer_factory.hpp:77] Creating layer inception_3a/5x5_reduce
I0323 23:07:31.290704 31804 net.cpp:91] Creating Layer inception_3a/5x5_reduce
I0323 23:07:31.290704 31804 net.cpp:425] inception_3a/5x5_reduce <- pool2/3x3_s2_pool2/3x3_s2_0_split_2
I0323 23:07:31.290704 31804 net.cpp:399] inception_3a/5x5_reduce -> inception_3a/5x5_reduce
I0323 23:07:31.290704 31804 net.cpp:141] Setting up inception_3a/5x5_reduce
I0323 23:07:31.290704 31804 net.cpp:148] Top shape: 1 16 28 28 (12544)
I0323 23:07:31.290704 31804 net.cpp:156] Memory required for data: 22328320
I0323 23:07:31.290704 31804 layer_factory.hpp:77] Creating layer inception_3a/relu_5x5_reduce
I0323 23:07:31.290704 31804 net.cpp:91] Creating Layer inception_3a/relu_5x5_reduce
I0323 23:07:31.290704 31804 net.cpp:425] inception_3a/relu_5x5_reduce <- inception_3a/5x5_reduce
I0323 23:07:31.290704 31804 net.cpp:386] inception_3a/relu_5x5_reduce -> inception_3a/5x5_reduce (in-place)
I0323 23:07:31.290704 31804 net.cpp:141] Setting up inception_3a/relu_5x5_reduce
I0323 23:07:31.290704 31804 net.cpp:148] Top shape: 1 16 28 28 (12544)
I0323 23:07:31.290704 31804 net.cpp:156] Memory required for data: 22378496
I0323 23:07:31.290704 31804 layer_factory.hpp:77] Creating layer inception_3a/5x5
I0323 23:07:31.290704 31804 net.cpp:91] Creating Layer inception_3a/5x5
I0323 23:07:31.290704 31804 net.cpp:425] inception_3a/5x5 <- inception_3a/5x5_reduce
I0323 23:07:31.290704 31804 net.cpp:399] inception_3a/5x5 -> inception_3a/5x5
I0323 23:07:31.290704 31804 net.cpp:141] Setting up inception_3a/5x5
I0323 23:07:31.290704 31804 net.cpp:148] Top shape: 1 32 28 28 (25088)
I0323 23:07:31.290704 31804 net.cpp:156] Memory required for data: 22478848
I0323 23:07:31.290704 31804 layer_factory.hpp:77] Creating layer inception_3a/relu_5x5
I0323 23:07:31.290704 31804 net.cpp:91] Creating Layer inception_3a/relu_5x5
I0323 23:07:31.290704 31804 net.cpp:425] inception_3a/relu_5x5 <- inception_3a/5x5
I0323 23:07:31.290704 31804 net.cpp:386] inception_3a/relu_5x5 -> inception_3a/5x5 (in-place)
I0323 23:07:31.290704 31804 net.cpp:141] Setting up inception_3a/relu_5x5
I0323 23:07:31.290704 31804 net.cpp:148] Top shape: 1 32 28 28 (25088)
I0323 23:07:31.290704 31804 net.cpp:156] Memory required for data: 22579200
I0323 23:07:31.290704 31804 layer_factory.hpp:77] Creating layer inception_3a/pool
I0323 23:07:31.290704 31804 net.cpp:91] Creating Layer inception_3a/pool
I0323 23:07:31.290704 31804 net.cpp:425] inception_3a/pool <- pool2/3x3_s2_pool2/3x3_s2_0_split_3
I0323 23:07:31.290704 31804 net.cpp:399] inception_3a/pool -> inception_3a/pool
I0323 23:07:31.290704 31804 net.cpp:141] Setting up inception_3a/pool
I0323 23:07:31.290704 31804 net.cpp:148] Top shape: 1 192 28 28 (150528)
I0323 23:07:31.290704 31804 net.cpp:156] Memory required for data: 23181312
I0323 23:07:31.290704 31804 layer_factory.hpp:77] Creating layer inception_3a/pool_proj
I0323 23:07:31.290704 31804 net.cpp:91] Creating Layer inception_3a/pool_proj
I0323 23:07:31.290704 31804 net.cpp:425] inception_3a/pool_proj <- inception_3a/pool
I0323 23:07:31.290704 31804 net.cpp:399] inception_3a/pool_proj -> inception_3a/pool_proj
I0323 23:07:31.290704 31804 net.cpp:141] Setting up inception_3a/pool_proj
I0323 23:07:31.290704 31804 net.cpp:148] Top shape: 1 32 28 28 (25088)
I0323 23:07:31.290704 31804 net.cpp:156] Memory required for data: 23281664
I0323 23:07:31.290704 31804 layer_factory.hpp:77] Creating layer inception_3a/relu_pool_proj
I0323 23:07:31.290704 31804 net.cpp:91] Creating Layer inception_3a/relu_pool_proj
I0323 23:07:31.290704 31804 net.cpp:425] inception_3a/relu_pool_proj <- inception_3a/pool_proj
I0323 23:07:31.290704 31804 net.cpp:386] inception_3a/relu_pool_proj -> inception_3a/pool_proj (in-place)
I0323 23:07:31.290704 31804 net.cpp:141] Setting up inception_3a/relu_pool_proj
I0323 23:07:31.290704 31804 net.cpp:148] Top shape: 1 32 28 28 (25088)
I0323 23:07:31.290704 31804 net.cpp:156] Memory required for data: 23382016
I0323 23:07:31.290704 31804 layer_factory.hpp:77] Creating layer inception_3a/output
I0323 23:07:31.290704 31804 net.cpp:91] Creating Layer inception_3a/output
I0323 23:07:31.290704 31804 net.cpp:425] inception_3a/output <- inception_3a/1x1
I0323 23:07:31.290704 31804 net.cpp:425] inception_3a/output <- inception_3a/3x3
I0323 23:07:31.290704 31804 net.cpp:425] inception_3a/output <- inception_3a/5x5
I0323 23:07:31.290704 31804 net.cpp:425] inception_3a/output <- inception_3a/pool_proj
I0323 23:07:31.290704 31804 net.cpp:399] inception_3a/output -> inception_3a/output
I0323 23:07:31.290704 31804 net.cpp:141] Setting up inception_3a/output
I0323 23:07:31.290704 31804 net.cpp:148] Top shape: 1 256 28 28 (200704)
I0323 23:07:31.290704 31804 net.cpp:156] Memory required for data: 24184832
I0323 23:07:31.290704 31804 layer_factory.hpp:77] Creating layer inception_3a/output_inception_3a/output_0_split
I0323 23:07:31.290704 31804 net.cpp:91] Creating Layer inception_3a/output_inception_3a/output_0_split
I0323 23:07:31.290704 31804 net.cpp:425] inception_3a/output_inception_3a/output_0_split <- inception_3a/output
I0323 23:07:31.290704 31804 net.cpp:399] inception_3a/output_inception_3a/output_0_split -> inception_3a/output_inception_3a/output_0_split_0
I0323 23:07:31.290704 31804 net.cpp:399] inception_3a/output_inception_3a/output_0_split -> inception_3a/output_inception_3a/output_0_split_1
I0323 23:07:31.290704 31804 net.cpp:399] inception_3a/output_inception_3a/output_0_split -> inception_3a/output_inception_3a/output_0_split_2
I0323 23:07:31.290704 31804 net.cpp:399] inception_3a/output_inception_3a/output_0_split -> inception_3a/output_inception_3a/output_0_split_3
I0323 23:07:31.290704 31804 net.cpp:141] Setting up inception_3a/output_inception_3a/output_0_split
I0323 23:07:31.290704 31804 net.cpp:148] Top shape: 1 256 28 28 (200704)
I0323 23:07:31.290704 31804 net.cpp:148] Top shape: 1 256 28 28 (200704)
I0323 23:07:31.290704 31804 net.cpp:148] Top shape: 1 256 28 28 (200704)
I0323 23:07:31.290704 31804 net.cpp:148] Top shape: 1 256 28 28 (200704)
I0323 23:07:31.290704 31804 net.cpp:156] Memory required for data: 27396096
I0323 23:07:31.290704 31804 layer_factory.hpp:77] Creating layer inception_3b/1x1
I0323 23:07:31.290704 31804 net.cpp:91] Creating Layer inception_3b/1x1
I0323 23:07:31.290704 31804 net.cpp:425] inception_3b/1x1 <- inception_3a/output_inception_3a/output_0_split_0
I0323 23:07:31.290704 31804 net.cpp:399] inception_3b/1x1 -> inception_3b/1x1
I0323 23:07:31.291707 31804 net.cpp:141] Setting up inception_3b/1x1
I0323 23:07:31.291707 31804 net.cpp:148] Top shape: 1 128 28 28 (100352)
I0323 23:07:31.291707 31804 net.cpp:156] Memory required for data: 27797504
I0323 23:07:31.291707 31804 layer_factory.hpp:77] Creating layer inception_3b/relu_1x1
I0323 23:07:31.291707 31804 net.cpp:91] Creating Layer inception_3b/relu_1x1
I0323 23:07:31.291707 31804 net.cpp:425] inception_3b/relu_1x1 <- inception_3b/1x1
I0323 23:07:31.291707 31804 net.cpp:386] inception_3b/relu_1x1 -> inception_3b/1x1 (in-place)
I0323 23:07:31.291707 31804 net.cpp:141] Setting up inception_3b/relu_1x1
I0323 23:07:31.291707 31804 net.cpp:148] Top shape: 1 128 28 28 (100352)
I0323 23:07:31.291707 31804 net.cpp:156] Memory required for data: 28198912
I0323 23:07:31.291707 31804 layer_factory.hpp:77] Creating layer inception_3b/3x3_reduce
I0323 23:07:31.291707 31804 net.cpp:91] Creating Layer inception_3b/3x3_reduce
I0323 23:07:31.291707 31804 net.cpp:425] inception_3b/3x3_reduce <- inception_3a/output_inception_3a/output_0_split_1
I0323 23:07:31.291707 31804 net.cpp:399] inception_3b/3x3_reduce -> inception_3b/3x3_reduce
I0323 23:07:31.291707 31804 net.cpp:141] Setting up inception_3b/3x3_reduce
I0323 23:07:31.291707 31804 net.cpp:148] Top shape: 1 128 28 28 (100352)
I0323 23:07:31.291707 31804 net.cpp:156] Memory required for data: 28600320
I0323 23:07:31.291707 31804 layer_factory.hpp:77] Creating layer inception_3b/relu_3x3_reduce
I0323 23:07:31.291707 31804 net.cpp:91] Creating Layer inception_3b/relu_3x3_reduce
I0323 23:07:31.291707 31804 net.cpp:425] inception_3b/relu_3x3_reduce <- inception_3b/3x3_reduce
I0323 23:07:31.291707 31804 net.cpp:386] inception_3b/relu_3x3_reduce -> inception_3b/3x3_reduce (in-place)
I0323 23:07:31.291707 31804 net.cpp:141] Setting up inception_3b/relu_3x3_reduce
I0323 23:07:31.291707 31804 net.cpp:148] Top shape: 1 128 28 28 (100352)
I0323 23:07:31.291707 31804 net.cpp:156] Memory required for data: 29001728
I0323 23:07:31.291707 31804 layer_factory.hpp:77] Creating layer inception_3b/3x3
I0323 23:07:31.291707 31804 net.cpp:91] Creating Layer inception_3b/3x3
I0323 23:07:31.291707 31804 net.cpp:425] inception_3b/3x3 <- inception_3b/3x3_reduce
I0323 23:07:31.291707 31804 net.cpp:399] inception_3b/3x3 -> inception_3b/3x3
I0323 23:07:31.294706 31804 net.cpp:141] Setting up inception_3b/3x3
I0323 23:07:31.295707 31804 net.cpp:148] Top shape: 1 192 28 28 (150528)
I0323 23:07:31.295707 31804 net.cpp:156] Memory required for data: 29603840
I0323 23:07:31.295707 31804 layer_factory.hpp:77] Creating layer inception_3b/relu_3x3
I0323 23:07:31.295707 31804 net.cpp:91] Creating Layer inception_3b/relu_3x3
I0323 23:07:31.295707 31804 net.cpp:425] inception_3b/relu_3x3 <- inception_3b/3x3
I0323 23:07:31.295707 31804 net.cpp:386] inception_3b/relu_3x3 -> inception_3b/3x3 (in-place)
I0323 23:07:31.295707 31804 net.cpp:141] Setting up inception_3b/relu_3x3
I0323 23:07:31.295707 31804 net.cpp:148] Top shape: 1 192 28 28 (150528)
I0323 23:07:31.295707 31804 net.cpp:156] Memory required for data: 30205952
I0323 23:07:31.295707 31804 layer_factory.hpp:77] Creating layer inception_3b/5x5_reduce
I0323 23:07:31.295707 31804 net.cpp:91] Creating Layer inception_3b/5x5_reduce
I0323 23:07:31.295707 31804 net.cpp:425] inception_3b/5x5_reduce <- inception_3a/output_inception_3a/output_0_split_2
I0323 23:07:31.295707 31804 net.cpp:399] inception_3b/5x5_reduce -> inception_3b/5x5_reduce
I0323 23:07:31.295707 31804 net.cpp:141] Setting up inception_3b/5x5_reduce
I0323 23:07:31.295707 31804 net.cpp:148] Top shape: 1 32 28 28 (25088)
I0323 23:07:31.295707 31804 net.cpp:156] Memory required for data: 30306304
I0323 23:07:31.295707 31804 layer_factory.hpp:77] Creating layer inception_3b/relu_5x5_reduce
I0323 23:07:31.295707 31804 net.cpp:91] Creating Layer inception_3b/relu_5x5_reduce
I0323 23:07:31.295707 31804 net.cpp:425] inception_3b/relu_5x5_reduce <- inception_3b/5x5_reduce
I0323 23:07:31.295707 31804 net.cpp:386] inception_3b/relu_5x5_reduce -> inception_3b/5x5_reduce (in-place)
I0323 23:07:31.295707 31804 net.cpp:141] Setting up inception_3b/relu_5x5_reduce
I0323 23:07:31.295707 31804 net.cpp:148] Top shape: 1 32 28 28 (25088)
I0323 23:07:31.295707 31804 net.cpp:156] Memory required for data: 30406656
I0323 23:07:31.295707 31804 layer_factory.hpp:77] Creating layer inception_3b/5x5
I0323 23:07:31.295707 31804 net.cpp:91] Creating Layer inception_3b/5x5
I0323 23:07:31.295707 31804 net.cpp:425] inception_3b/5x5 <- inception_3b/5x5_reduce
I0323 23:07:31.295707 31804 net.cpp:399] inception_3b/5x5 -> inception_3b/5x5
I0323 23:07:31.296710 31804 net.cpp:141] Setting up inception_3b/5x5
I0323 23:07:31.296710 31804 net.cpp:148] Top shape: 1 96 28 28 (75264)
I0323 23:07:31.296710 31804 net.cpp:156] Memory required for data: 30707712
I0323 23:07:31.296710 31804 layer_factory.hpp:77] Creating layer inception_3b/relu_5x5
I0323 23:07:31.296710 31804 net.cpp:91] Creating Layer inception_3b/relu_5x5
I0323 23:07:31.296710 31804 net.cpp:425] inception_3b/relu_5x5 <- inception_3b/5x5
I0323 23:07:31.296710 31804 net.cpp:386] inception_3b/relu_5x5 -> inception_3b/5x5 (in-place)
I0323 23:07:31.296710 31804 net.cpp:141] Setting up inception_3b/relu_5x5
I0323 23:07:31.296710 31804 net.cpp:148] Top shape: 1 96 28 28 (75264)
I0323 23:07:31.296710 31804 net.cpp:156] Memory required for data: 31008768
I0323 23:07:31.296710 31804 layer_factory.hpp:77] Creating layer inception_3b/pool
I0323 23:07:31.296710 31804 net.cpp:91] Creating Layer inception_3b/pool
I0323 23:07:31.296710 31804 net.cpp:425] inception_3b/pool <- inception_3a/output_inception_3a/output_0_split_3
I0323 23:07:31.296710 31804 net.cpp:399] inception_3b/pool -> inception_3b/pool
I0323 23:07:31.296710 31804 net.cpp:141] Setting up inception_3b/pool
I0323 23:07:31.296710 31804 net.cpp:148] Top shape: 1 256 28 28 (200704)
I0323 23:07:31.296710 31804 net.cpp:156] Memory required for data: 31811584
I0323 23:07:31.296710 31804 layer_factory.hpp:77] Creating layer inception_3b/pool_proj
I0323 23:07:31.296710 31804 net.cpp:91] Creating Layer inception_3b/pool_proj
I0323 23:07:31.296710 31804 net.cpp:425] inception_3b/pool_proj <- inception_3b/pool
I0323 23:07:31.296710 31804 net.cpp:399] inception_3b/pool_proj -> inception_3b/pool_proj
I0323 23:07:31.297708 31804 net.cpp:141] Setting up inception_3b/pool_proj
I0323 23:07:31.297708 31804 net.cpp:148] Top shape: 1 64 28 28 (50176)
I0323 23:07:31.297708 31804 net.cpp:156] Memory required for data: 32012288
I0323 23:07:31.297708 31804 layer_factory.hpp:77] Creating layer inception_3b/relu_pool_proj
I0323 23:07:31.297708 31804 net.cpp:91] Creating Layer inception_3b/relu_pool_proj
I0323 23:07:31.297708 31804 net.cpp:425] inception_3b/relu_pool_proj <- inception_3b/pool_proj
I0323 23:07:31.297708 31804 net.cpp:386] inception_3b/relu_pool_proj -> inception_3b/pool_proj (in-place)
I0323 23:07:31.297708 31804 net.cpp:141] Setting up inception_3b/relu_pool_proj
I0323 23:07:31.297708 31804 net.cpp:148] Top shape: 1 64 28 28 (50176)
I0323 23:07:31.297708 31804 net.cpp:156] Memory required for data: 32212992
I0323 23:07:31.297708 31804 layer_factory.hpp:77] Creating layer inception_3b/output
I0323 23:07:31.297708 31804 net.cpp:91] Creating Layer inception_3b/output
I0323 23:07:31.297708 31804 net.cpp:425] inception_3b/output <- inception_3b/1x1
I0323 23:07:31.297708 31804 net.cpp:425] inception_3b/output <- inception_3b/3x3
I0323 23:07:31.297708 31804 net.cpp:425] inception_3b/output <- inception_3b/5x5
I0323 23:07:31.297708 31804 net.cpp:425] inception_3b/output <- inception_3b/pool_proj
I0323 23:07:31.297708 31804 net.cpp:399] inception_3b/output -> inception_3b/output
I0323 23:07:31.297708 31804 net.cpp:141] Setting up inception_3b/output
I0323 23:07:31.297708 31804 net.cpp:148] Top shape: 1 480 28 28 (376320)
I0323 23:07:31.297708 31804 net.cpp:156] Memory required for data: 33718272
I0323 23:07:31.297708 31804 layer_factory.hpp:77] Creating layer pool3/3x3_s2
I0323 23:07:31.297708 31804 net.cpp:91] Creating Layer pool3/3x3_s2
I0323 23:07:31.297708 31804 net.cpp:425] pool3/3x3_s2 <- inception_3b/output
I0323 23:07:31.297708 31804 net.cpp:399] pool3/3x3_s2 -> pool3/3x3_s2
I0323 23:07:31.297708 31804 net.cpp:141] Setting up pool3/3x3_s2
I0323 23:07:31.297708 31804 net.cpp:148] Top shape: 1 480 14 14 (94080)
I0323 23:07:31.297708 31804 net.cpp:156] Memory required for data: 34094592
I0323 23:07:31.297708 31804 layer_factory.hpp:77] Creating layer pool3/3x3_s2_pool3/3x3_s2_0_split
I0323 23:07:31.297708 31804 net.cpp:91] Creating Layer pool3/3x3_s2_pool3/3x3_s2_0_split
I0323 23:07:31.297708 31804 net.cpp:425] pool3/3x3_s2_pool3/3x3_s2_0_split <- pool3/3x3_s2
I0323 23:07:31.297708 31804 net.cpp:399] pool3/3x3_s2_pool3/3x3_s2_0_split -> pool3/3x3_s2_pool3/3x3_s2_0_split_0
I0323 23:07:31.297708 31804 net.cpp:399] pool3/3x3_s2_pool3/3x3_s2_0_split -> pool3/3x3_s2_pool3/3x3_s2_0_split_1
I0323 23:07:31.297708 31804 net.cpp:399] pool3/3x3_s2_pool3/3x3_s2_0_split -> pool3/3x3_s2_pool3/3x3_s2_0_split_2
I0323 23:07:31.297708 31804 net.cpp:399] pool3/3x3_s2_pool3/3x3_s2_0_split -> pool3/3x3_s2_pool3/3x3_s2_0_split_3
I0323 23:07:31.297708 31804 net.cpp:141] Setting up pool3/3x3_s2_pool3/3x3_s2_0_split
I0323 23:07:31.297708 31804 net.cpp:148] Top shape: 1 480 14 14 (94080)
I0323 23:07:31.297708 31804 net.cpp:148] Top shape: 1 480 14 14 (94080)
I0323 23:07:31.297708 31804 net.cpp:148] Top shape: 1 480 14 14 (94080)
I0323 23:07:31.297708 31804 net.cpp:148] Top shape: 1 480 14 14 (94080)
I0323 23:07:31.297708 31804 net.cpp:156] Memory required for data: 35599872
I0323 23:07:31.297708 31804 layer_factory.hpp:77] Creating layer inception_4a/1x1
I0323 23:07:31.297708 31804 net.cpp:91] Creating Layer inception_4a/1x1
I0323 23:07:31.297708 31804 net.cpp:425] inception_4a/1x1 <- pool3/3x3_s2_pool3/3x3_s2_0_split_0
I0323 23:07:31.297708 31804 net.cpp:399] inception_4a/1x1 -> inception_4a/1x1
I0323 23:07:31.298708 31804 net.cpp:141] Setting up inception_4a/1x1
I0323 23:07:31.298708 31804 net.cpp:148] Top shape: 1 192 14 14 (37632)
I0323 23:07:31.298708 31804 net.cpp:156] Memory required for data: 35750400
I0323 23:07:31.298708 31804 layer_factory.hpp:77] Creating layer inception_4a/relu_1x1
I0323 23:07:31.298708 31804 net.cpp:91] Creating Layer inception_4a/relu_1x1
I0323 23:07:31.298708 31804 net.cpp:425] inception_4a/relu_1x1 <- inception_4a/1x1
I0323 23:07:31.298708 31804 net.cpp:386] inception_4a/relu_1x1 -> inception_4a/1x1 (in-place)
I0323 23:07:31.298708 31804 net.cpp:141] Setting up inception_4a/relu_1x1
I0323 23:07:31.298708 31804 net.cpp:148] Top shape: 1 192 14 14 (37632)
I0323 23:07:31.298708 31804 net.cpp:156] Memory required for data: 35900928
I0323 23:07:31.298708 31804 layer_factory.hpp:77] Creating layer inception_4a/3x3_reduce
I0323 23:07:31.298708 31804 net.cpp:91] Creating Layer inception_4a/3x3_reduce
I0323 23:07:31.298708 31804 net.cpp:425] inception_4a/3x3_reduce <- pool3/3x3_s2_pool3/3x3_s2_0_split_1
I0323 23:07:31.298708 31804 net.cpp:399] inception_4a/3x3_reduce -> inception_4a/3x3_reduce
I0323 23:07:31.299711 31804 net.cpp:141] Setting up inception_4a/3x3_reduce
I0323 23:07:31.299711 31804 net.cpp:148] Top shape: 1 96 14 14 (18816)
I0323 23:07:31.299711 31804 net.cpp:156] Memory required for data: 35976192
I0323 23:07:31.299711 31804 layer_factory.hpp:77] Creating layer inception_4a/relu_3x3_reduce
I0323 23:07:31.299711 31804 net.cpp:91] Creating Layer inception_4a/relu_3x3_reduce
I0323 23:07:31.299711 31804 net.cpp:425] inception_4a/relu_3x3_reduce <- inception_4a/3x3_reduce
I0323 23:07:31.299711 31804 net.cpp:386] inception_4a/relu_3x3_reduce -> inception_4a/3x3_reduce (in-place)
I0323 23:07:31.299711 31804 net.cpp:141] Setting up inception_4a/relu_3x3_reduce
I0323 23:07:31.299711 31804 net.cpp:148] Top shape: 1 96 14 14 (18816)
I0323 23:07:31.299711 31804 net.cpp:156] Memory required for data: 36051456
I0323 23:07:31.299711 31804 layer_factory.hpp:77] Creating layer inception_4a/3x3
I0323 23:07:31.299711 31804 net.cpp:91] Creating Layer inception_4a/3x3
I0323 23:07:31.299711 31804 net.cpp:425] inception_4a/3x3 <- inception_4a/3x3_reduce
I0323 23:07:31.299711 31804 net.cpp:399] inception_4a/3x3 -> inception_4a/3x3
I0323 23:07:31.301733 31804 net.cpp:141] Setting up inception_4a/3x3
I0323 23:07:31.301733 31804 net.cpp:148] Top shape: 1 208 14 14 (40768)
I0323 23:07:31.301733 31804 net.cpp:156] Memory required for data: 36214528
I0323 23:07:31.301733 31804 layer_factory.hpp:77] Creating layer inception_4a/relu_3x3
I0323 23:07:31.301733 31804 net.cpp:91] Creating Layer inception_4a/relu_3x3
I0323 23:07:31.301733 31804 net.cpp:425] inception_4a/relu_3x3 <- inception_4a/3x3
I0323 23:07:31.301733 31804 net.cpp:386] inception_4a/relu_3x3 -> inception_4a/3x3 (in-place)
I0323 23:07:31.301733 31804 net.cpp:141] Setting up inception_4a/relu_3x3
I0323 23:07:31.301733 31804 net.cpp:148] Top shape: 1 208 14 14 (40768)
I0323 23:07:31.301733 31804 net.cpp:156] Memory required for data: 36377600
I0323 23:07:31.301733 31804 layer_factory.hpp:77] Creating layer inception_4a/5x5_reduce
I0323 23:07:31.301733 31804 net.cpp:91] Creating Layer inception_4a/5x5_reduce
I0323 23:07:31.301733 31804 net.cpp:425] inception_4a/5x5_reduce <- pool3/3x3_s2_pool3/3x3_s2_0_split_2
I0323 23:07:31.301733 31804 net.cpp:399] inception_4a/5x5_reduce -> inception_4a/5x5_reduce
I0323 23:07:31.301733 31804 net.cpp:141] Setting up inception_4a/5x5_reduce
I0323 23:07:31.301733 31804 net.cpp:148] Top shape: 1 16 14 14 (3136)
I0323 23:07:31.301733 31804 net.cpp:156] Memory required for data: 36390144
I0323 23:07:31.301733 31804 layer_factory.hpp:77] Creating layer inception_4a/relu_5x5_reduce
I0323 23:07:31.301733 31804 net.cpp:91] Creating Layer inception_4a/relu_5x5_reduce
I0323 23:07:31.301733 31804 net.cpp:425] inception_4a/relu_5x5_reduce <- inception_4a/5x5_reduce
I0323 23:07:31.301733 31804 net.cpp:386] inception_4a/relu_5x5_reduce -> inception_4a/5x5_reduce (in-place)
I0323 23:07:31.301733 31804 net.cpp:141] Setting up inception_4a/relu_5x5_reduce
I0323 23:07:31.301733 31804 net.cpp:148] Top shape: 1 16 14 14 (3136)
I0323 23:07:31.301733 31804 net.cpp:156] Memory required for data: 36402688
I0323 23:07:31.301733 31804 layer_factory.hpp:77] Creating layer inception_4a/5x5
I0323 23:07:31.301733 31804 net.cpp:91] Creating Layer inception_4a/5x5
I0323 23:07:31.301733 31804 net.cpp:425] inception_4a/5x5 <- inception_4a/5x5_reduce
I0323 23:07:31.301733 31804 net.cpp:399] inception_4a/5x5 -> inception_4a/5x5
I0323 23:07:31.302714 31804 net.cpp:141] Setting up inception_4a/5x5
I0323 23:07:31.302714 31804 net.cpp:148] Top shape: 1 48 14 14 (9408)
I0323 23:07:31.302714 31804 net.cpp:156] Memory required for data: 36440320
I0323 23:07:31.302714 31804 layer_factory.hpp:77] Creating layer inception_4a/relu_5x5
I0323 23:07:31.302714 31804 net.cpp:91] Creating Layer inception_4a/relu_5x5
I0323 23:07:31.302714 31804 net.cpp:425] inception_4a/relu_5x5 <- inception_4a/5x5
I0323 23:07:31.302714 31804 net.cpp:386] inception_4a/relu_5x5 -> inception_4a/5x5 (in-place)
I0323 23:07:31.302714 31804 net.cpp:141] Setting up inception_4a/relu_5x5
I0323 23:07:31.302714 31804 net.cpp:148] Top shape: 1 48 14 14 (9408)
I0323 23:07:31.302714 31804 net.cpp:156] Memory required for data: 36477952
I0323 23:07:31.302714 31804 layer_factory.hpp:77] Creating layer inception_4a/pool
I0323 23:07:31.302714 31804 net.cpp:91] Creating Layer inception_4a/pool
I0323 23:07:31.302714 31804 net.cpp:425] inception_4a/pool <- pool3/3x3_s2_pool3/3x3_s2_0_split_3
I0323 23:07:31.302714 31804 net.cpp:399] inception_4a/pool -> inception_4a/pool
I0323 23:07:31.302714 31804 net.cpp:141] Setting up inception_4a/pool
I0323 23:07:31.302714 31804 net.cpp:148] Top shape: 1 480 14 14 (94080)
I0323 23:07:31.302714 31804 net.cpp:156] Memory required for data: 36854272
I0323 23:07:31.302714 31804 layer_factory.hpp:77] Creating layer inception_4a/pool_proj
I0323 23:07:31.302714 31804 net.cpp:91] Creating Layer inception_4a/pool_proj
I0323 23:07:31.302714 31804 net.cpp:425] inception_4a/pool_proj <- inception_4a/pool
I0323 23:07:31.302714 31804 net.cpp:399] inception_4a/pool_proj -> inception_4a/pool_proj
I0323 23:07:31.302714 31804 net.cpp:141] Setting up inception_4a/pool_proj
I0323 23:07:31.302714 31804 net.cpp:148] Top shape: 1 64 14 14 (12544)
I0323 23:07:31.302714 31804 net.cpp:156] Memory required for data: 36904448
I0323 23:07:31.302714 31804 layer_factory.hpp:77] Creating layer inception_4a/relu_pool_proj
I0323 23:07:31.302714 31804 net.cpp:91] Creating Layer inception_4a/relu_pool_proj
I0323 23:07:31.302714 31804 net.cpp:425] inception_4a/relu_pool_proj <- inception_4a/pool_proj
I0323 23:07:31.302714 31804 net.cpp:386] inception_4a/relu_pool_proj -> inception_4a/pool_proj (in-place)
I0323 23:07:31.302714 31804 net.cpp:141] Setting up inception_4a/relu_pool_proj
I0323 23:07:31.303714 31804 net.cpp:148] Top shape: 1 64 14 14 (12544)
I0323 23:07:31.303714 31804 net.cpp:156] Memory required for data: 36954624
I0323 23:07:31.303714 31804 layer_factory.hpp:77] Creating layer inception_4a/output
I0323 23:07:31.303714 31804 net.cpp:91] Creating Layer inception_4a/output
I0323 23:07:31.303714 31804 net.cpp:425] inception_4a/output <- inception_4a/1x1
I0323 23:07:31.303714 31804 net.cpp:425] inception_4a/output <- inception_4a/3x3
I0323 23:07:31.303714 31804 net.cpp:425] inception_4a/output <- inception_4a/5x5
I0323 23:07:31.303714 31804 net.cpp:425] inception_4a/output <- inception_4a/pool_proj
I0323 23:07:31.303714 31804 net.cpp:399] inception_4a/output -> inception_4a/output
I0323 23:07:31.303714 31804 net.cpp:141] Setting up inception_4a/output
I0323 23:07:31.303714 31804 net.cpp:148] Top shape: 1 512 14 14 (100352)
I0323 23:07:31.303714 31804 net.cpp:156] Memory required for data: 37356032
I0323 23:07:31.303714 31804 layer_factory.hpp:77] Creating layer inception_4a/output_inception_4a/output_0_split
I0323 23:07:31.303714 31804 net.cpp:91] Creating Layer inception_4a/output_inception_4a/output_0_split
I0323 23:07:31.303714 31804 net.cpp:425] inception_4a/output_inception_4a/output_0_split <- inception_4a/output
I0323 23:07:31.303714 31804 net.cpp:399] inception_4a/output_inception_4a/output_0_split -> inception_4a/output_inception_4a/output_0_split_0
I0323 23:07:31.303714 31804 net.cpp:399] inception_4a/output_inception_4a/output_0_split -> inception_4a/output_inception_4a/output_0_split_1
I0323 23:07:31.303714 31804 net.cpp:399] inception_4a/output_inception_4a/output_0_split -> inception_4a/output_inception_4a/output_0_split_2
I0323 23:07:31.303714 31804 net.cpp:399] inception_4a/output_inception_4a/output_0_split -> inception_4a/output_inception_4a/output_0_split_3
I0323 23:07:31.303714 31804 net.cpp:141] Setting up inception_4a/output_inception_4a/output_0_split
I0323 23:07:31.303714 31804 net.cpp:148] Top shape: 1 512 14 14 (100352)
I0323 23:07:31.303714 31804 net.cpp:148] Top shape: 1 512 14 14 (100352)
I0323 23:07:31.303714 31804 net.cpp:148] Top shape: 1 512 14 14 (100352)
I0323 23:07:31.303714 31804 net.cpp:148] Top shape: 1 512 14 14 (100352)
I0323 23:07:31.303714 31804 net.cpp:156] Memory required for data: 38961664
I0323 23:07:31.303714 31804 layer_factory.hpp:77] Creating layer inception_4b/1x1
I0323 23:07:31.303714 31804 net.cpp:91] Creating Layer inception_4b/1x1
I0323 23:07:31.303714 31804 net.cpp:425] inception_4b/1x1 <- inception_4a/output_inception_4a/output_0_split_0
I0323 23:07:31.303714 31804 net.cpp:399] inception_4b/1x1 -> inception_4b/1x1
I0323 23:07:31.304715 31804 net.cpp:141] Setting up inception_4b/1x1
I0323 23:07:31.304715 31804 net.cpp:148] Top shape: 1 160 14 14 (31360)
I0323 23:07:31.304715 31804 net.cpp:156] Memory required for data: 39087104
I0323 23:07:31.304715 31804 layer_factory.hpp:77] Creating layer inception_4b/relu_1x1
I0323 23:07:31.304715 31804 net.cpp:91] Creating Layer inception_4b/relu_1x1
I0323 23:07:31.304715 31804 net.cpp:425] inception_4b/relu_1x1 <- inception_4b/1x1
I0323 23:07:31.304715 31804 net.cpp:386] inception_4b/relu_1x1 -> inception_4b/1x1 (in-place)
I0323 23:07:31.304715 31804 net.cpp:141] Setting up inception_4b/relu_1x1
I0323 23:07:31.304715 31804 net.cpp:148] Top shape: 1 160 14 14 (31360)
I0323 23:07:31.304715 31804 net.cpp:156] Memory required for data: 39212544
I0323 23:07:31.304715 31804 layer_factory.hpp:77] Creating layer inception_4b/3x3_reduce
I0323 23:07:31.304715 31804 net.cpp:91] Creating Layer inception_4b/3x3_reduce
I0323 23:07:31.304715 31804 net.cpp:425] inception_4b/3x3_reduce <- inception_4a/output_inception_4a/output_0_split_1
I0323 23:07:31.304715 31804 net.cpp:399] inception_4b/3x3_reduce -> inception_4b/3x3_reduce
I0323 23:07:31.304715 31804 net.cpp:141] Setting up inception_4b/3x3_reduce
I0323 23:07:31.304715 31804 net.cpp:148] Top shape: 1 112 14 14 (21952)
I0323 23:07:31.304715 31804 net.cpp:156] Memory required for data: 39300352
I0323 23:07:31.304715 31804 layer_factory.hpp:77] Creating layer inception_4b/relu_3x3_reduce
I0323 23:07:31.304715 31804 net.cpp:91] Creating Layer inception_4b/relu_3x3_reduce
I0323 23:07:31.304715 31804 net.cpp:425] inception_4b/relu_3x3_reduce <- inception_4b/3x3_reduce
I0323 23:07:31.304715 31804 net.cpp:386] inception_4b/relu_3x3_reduce -> inception_4b/3x3_reduce (in-place)
I0323 23:07:31.304715 31804 net.cpp:141] Setting up inception_4b/relu_3x3_reduce
I0323 23:07:31.304715 31804 net.cpp:148] Top shape: 1 112 14 14 (21952)
I0323 23:07:31.304715 31804 net.cpp:156] Memory required for data: 39388160
I0323 23:07:31.304715 31804 layer_factory.hpp:77] Creating layer inception_4b/3x3
I0323 23:07:31.304715 31804 net.cpp:91] Creating Layer inception_4b/3x3
I0323 23:07:31.304715 31804 net.cpp:425] inception_4b/3x3 <- inception_4b/3x3_reduce
I0323 23:07:31.304715 31804 net.cpp:399] inception_4b/3x3 -> inception_4b/3x3
I0323 23:07:31.306716 31804 net.cpp:141] Setting up inception_4b/3x3
I0323 23:07:31.306716 31804 net.cpp:148] Top shape: 1 224 14 14 (43904)
I0323 23:07:31.306716 31804 net.cpp:156] Memory required for data: 39563776
I0323 23:07:31.306716 31804 layer_factory.hpp:77] Creating layer inception_4b/relu_3x3
I0323 23:07:31.306716 31804 net.cpp:91] Creating Layer inception_4b/relu_3x3
I0323 23:07:31.306716 31804 net.cpp:425] inception_4b/relu_3x3 <- inception_4b/3x3
I0323 23:07:31.306716 31804 net.cpp:386] inception_4b/relu_3x3 -> inception_4b/3x3 (in-place)
I0323 23:07:31.306716 31804 net.cpp:141] Setting up inception_4b/relu_3x3
I0323 23:07:31.306716 31804 net.cpp:148] Top shape: 1 224 14 14 (43904)
I0323 23:07:31.306716 31804 net.cpp:156] Memory required for data: 39739392
I0323 23:07:31.306716 31804 layer_factory.hpp:77] Creating layer inception_4b/5x5_reduce
I0323 23:07:31.306716 31804 net.cpp:91] Creating Layer inception_4b/5x5_reduce
I0323 23:07:31.306716 31804 net.cpp:425] inception_4b/5x5_reduce <- inception_4a/output_inception_4a/output_0_split_2
I0323 23:07:31.306716 31804 net.cpp:399] inception_4b/5x5_reduce -> inception_4b/5x5_reduce
I0323 23:07:31.307718 31804 net.cpp:141] Setting up inception_4b/5x5_reduce
I0323 23:07:31.307718 31804 net.cpp:148] Top shape: 1 24 14 14 (4704)
I0323 23:07:31.307718 31804 net.cpp:156] Memory required for data: 39758208
I0323 23:07:31.307718 31804 layer_factory.hpp:77] Creating layer inception_4b/relu_5x5_reduce
I0323 23:07:31.307718 31804 net.cpp:91] Creating Layer inception_4b/relu_5x5_reduce
I0323 23:07:31.307718 31804 net.cpp:425] inception_4b/relu_5x5_reduce <- inception_4b/5x5_reduce
I0323 23:07:31.307718 31804 net.cpp:386] inception_4b/relu_5x5_reduce -> inception_4b/5x5_reduce (in-place)
I0323 23:07:31.307718 31804 net.cpp:141] Setting up inception_4b/relu_5x5_reduce
I0323 23:07:31.307718 31804 net.cpp:148] Top shape: 1 24 14 14 (4704)
I0323 23:07:31.307718 31804 net.cpp:156] Memory required for data: 39777024
I0323 23:07:31.307718 31804 layer_factory.hpp:77] Creating layer inception_4b/5x5
I0323 23:07:31.307718 31804 net.cpp:91] Creating Layer inception_4b/5x5
I0323 23:07:31.307718 31804 net.cpp:425] inception_4b/5x5 <- inception_4b/5x5_reduce
I0323 23:07:31.307718 31804 net.cpp:399] inception_4b/5x5 -> inception_4b/5x5
I0323 23:07:31.307718 31804 net.cpp:141] Setting up inception_4b/5x5
I0323 23:07:31.307718 31804 net.cpp:148] Top shape: 1 64 14 14 (12544)
I0323 23:07:31.307718 31804 net.cpp:156] Memory required for data: 39827200
I0323 23:07:31.307718 31804 layer_factory.hpp:77] Creating layer inception_4b/relu_5x5
I0323 23:07:31.307718 31804 net.cpp:91] Creating Layer inception_4b/relu_5x5
I0323 23:07:31.307718 31804 net.cpp:425] inception_4b/relu_5x5 <- inception_4b/5x5
I0323 23:07:31.307718 31804 net.cpp:386] inception_4b/relu_5x5 -> inception_4b/5x5 (in-place)
I0323 23:07:31.307718 31804 net.cpp:141] Setting up inception_4b/relu_5x5
I0323 23:07:31.307718 31804 net.cpp:148] Top shape: 1 64 14 14 (12544)
I0323 23:07:31.307718 31804 net.cpp:156] Memory required for data: 39877376
I0323 23:07:31.307718 31804 layer_factory.hpp:77] Creating layer inception_4b/pool
I0323 23:07:31.307718 31804 net.cpp:91] Creating Layer inception_4b/pool
I0323 23:07:31.307718 31804 net.cpp:425] inception_4b/pool <- inception_4a/output_inception_4a/output_0_split_3
I0323 23:07:31.307718 31804 net.cpp:399] inception_4b/pool -> inception_4b/pool
I0323 23:07:31.307718 31804 net.cpp:141] Setting up inception_4b/pool
I0323 23:07:31.307718 31804 net.cpp:148] Top shape: 1 512 14 14 (100352)
I0323 23:07:31.307718 31804 net.cpp:156] Memory required for data: 40278784
I0323 23:07:31.307718 31804 layer_factory.hpp:77] Creating layer inception_4b/pool_proj
I0323 23:07:31.307718 31804 net.cpp:91] Creating Layer inception_4b/pool_proj
I0323 23:07:31.307718 31804 net.cpp:425] inception_4b/pool_proj <- inception_4b/pool
I0323 23:07:31.307718 31804 net.cpp:399] inception_4b/pool_proj -> inception_4b/pool_proj
I0323 23:07:31.308718 31804 net.cpp:141] Setting up inception_4b/pool_proj
I0323 23:07:31.308718 31804 net.cpp:148] Top shape: 1 64 14 14 (12544)
I0323 23:07:31.308718 31804 net.cpp:156] Memory required for data: 40328960
I0323 23:07:31.308718 31804 layer_factory.hpp:77] Creating layer inception_4b/relu_pool_proj
I0323 23:07:31.308718 31804 net.cpp:91] Creating Layer inception_4b/relu_pool_proj
I0323 23:07:31.308718 31804 net.cpp:425] inception_4b/relu_pool_proj <- inception_4b/pool_proj
I0323 23:07:31.308718 31804 net.cpp:386] inception_4b/relu_pool_proj -> inception_4b/pool_proj (in-place)
I0323 23:07:31.308718 31804 net.cpp:141] Setting up inception_4b/relu_pool_proj
I0323 23:07:31.308718 31804 net.cpp:148] Top shape: 1 64 14 14 (12544)
I0323 23:07:31.308718 31804 net.cpp:156] Memory required for data: 40379136
I0323 23:07:31.308718 31804 layer_factory.hpp:77] Creating layer inception_4b/output
I0323 23:07:31.308718 31804 net.cpp:91] Creating Layer inception_4b/output
I0323 23:07:31.308718 31804 net.cpp:425] inception_4b/output <- inception_4b/1x1
I0323 23:07:31.308718 31804 net.cpp:425] inception_4b/output <- inception_4b/3x3
I0323 23:07:31.308718 31804 net.cpp:425] inception_4b/output <- inception_4b/5x5
I0323 23:07:31.308718 31804 net.cpp:425] inception_4b/output <- inception_4b/pool_proj
I0323 23:07:31.308718 31804 net.cpp:399] inception_4b/output -> inception_4b/output
I0323 23:07:31.308718 31804 net.cpp:141] Setting up inception_4b/output
I0323 23:07:31.308718 31804 net.cpp:148] Top shape: 1 512 14 14 (100352)
I0323 23:07:31.308718 31804 net.cpp:156] Memory required for data: 40780544
I0323 23:07:31.308718 31804 layer_factory.hpp:77] Creating layer inception_4b/output_inception_4b/output_0_split
I0323 23:07:31.308718 31804 net.cpp:91] Creating Layer inception_4b/output_inception_4b/output_0_split
I0323 23:07:31.308718 31804 net.cpp:425] inception_4b/output_inception_4b/output_0_split <- inception_4b/output
I0323 23:07:31.308718 31804 net.cpp:399] inception_4b/output_inception_4b/output_0_split -> inception_4b/output_inception_4b/output_0_split_0
I0323 23:07:31.308718 31804 net.cpp:399] inception_4b/output_inception_4b/output_0_split -> inception_4b/output_inception_4b/output_0_split_1
I0323 23:07:31.308718 31804 net.cpp:399] inception_4b/output_inception_4b/output_0_split -> inception_4b/output_inception_4b/output_0_split_2
I0323 23:07:31.308718 31804 net.cpp:399] inception_4b/output_inception_4b/output_0_split -> inception_4b/output_inception_4b/output_0_split_3
I0323 23:07:31.308718 31804 net.cpp:141] Setting up inception_4b/output_inception_4b/output_0_split
I0323 23:07:31.308718 31804 net.cpp:148] Top shape: 1 512 14 14 (100352)
I0323 23:07:31.308718 31804 net.cpp:148] Top shape: 1 512 14 14 (100352)
I0323 23:07:31.308718 31804 net.cpp:148] Top shape: 1 512 14 14 (100352)
I0323 23:07:31.308718 31804 net.cpp:148] Top shape: 1 512 14 14 (100352)
I0323 23:07:31.308718 31804 net.cpp:156] Memory required for data: 42386176
I0323 23:07:31.308718 31804 layer_factory.hpp:77] Creating layer inception_4c/1x1
I0323 23:07:31.308718 31804 net.cpp:91] Creating Layer inception_4c/1x1
I0323 23:07:31.308718 31804 net.cpp:425] inception_4c/1x1 <- inception_4b/output_inception_4b/output_0_split_0
I0323 23:07:31.308718 31804 net.cpp:399] inception_4c/1x1 -> inception_4c/1x1
I0323 23:07:31.308718 31804 net.cpp:141] Setting up inception_4c/1x1
I0323 23:07:31.308718 31804 net.cpp:148] Top shape: 1 128 14 14 (25088)
I0323 23:07:31.308718 31804 net.cpp:156] Memory required for data: 42486528
I0323 23:07:31.308718 31804 layer_factory.hpp:77] Creating layer inception_4c/relu_1x1
I0323 23:07:31.308718 31804 net.cpp:91] Creating Layer inception_4c/relu_1x1
I0323 23:07:31.308718 31804 net.cpp:425] inception_4c/relu_1x1 <- inception_4c/1x1
I0323 23:07:31.308718 31804 net.cpp:386] inception_4c/relu_1x1 -> inception_4c/1x1 (in-place)
I0323 23:07:31.308718 31804 net.cpp:141] Setting up inception_4c/relu_1x1
I0323 23:07:31.308718 31804 net.cpp:148] Top shape: 1 128 14 14 (25088)
I0323 23:07:31.308718 31804 net.cpp:156] Memory required for data: 42586880
I0323 23:07:31.309720 31804 layer_factory.hpp:77] Creating layer inception_4c/3x3_reduce
I0323 23:07:31.309720 31804 net.cpp:91] Creating Layer inception_4c/3x3_reduce
I0323 23:07:31.309720 31804 net.cpp:425] inception_4c/3x3_reduce <- inception_4b/output_inception_4b/output_0_split_1
I0323 23:07:31.309720 31804 net.cpp:399] inception_4c/3x3_reduce -> inception_4c/3x3_reduce
I0323 23:07:31.309720 31804 net.cpp:141] Setting up inception_4c/3x3_reduce
I0323 23:07:31.309720 31804 net.cpp:148] Top shape: 1 128 14 14 (25088)
I0323 23:07:31.309720 31804 net.cpp:156] Memory required for data: 42687232
I0323 23:07:31.309720 31804 layer_factory.hpp:77] Creating layer inception_4c/relu_3x3_reduce
I0323 23:07:31.309720 31804 net.cpp:91] Creating Layer inception_4c/relu_3x3_reduce
I0323 23:07:31.309720 31804 net.cpp:425] inception_4c/relu_3x3_reduce <- inception_4c/3x3_reduce
I0323 23:07:31.309720 31804 net.cpp:386] inception_4c/relu_3x3_reduce -> inception_4c/3x3_reduce (in-place)
I0323 23:07:31.309720 31804 net.cpp:141] Setting up inception_4c/relu_3x3_reduce
I0323 23:07:31.309720 31804 net.cpp:148] Top shape: 1 128 14 14 (25088)
I0323 23:07:31.309720 31804 net.cpp:156] Memory required for data: 42787584
I0323 23:07:31.309720 31804 layer_factory.hpp:77] Creating layer inception_4c/3x3
I0323 23:07:31.309720 31804 net.cpp:91] Creating Layer inception_4c/3x3
I0323 23:07:31.309720 31804 net.cpp:425] inception_4c/3x3 <- inception_4c/3x3_reduce
I0323 23:07:31.309720 31804 net.cpp:399] inception_4c/3x3 -> inception_4c/3x3
I0323 23:07:31.312719 31804 net.cpp:141] Setting up inception_4c/3x3
I0323 23:07:31.312719 31804 net.cpp:148] Top shape: 1 256 14 14 (50176)
I0323 23:07:31.312719 31804 net.cpp:156] Memory required for data: 42988288
I0323 23:07:31.312719 31804 layer_factory.hpp:77] Creating layer inception_4c/relu_3x3
I0323 23:07:31.312719 31804 net.cpp:91] Creating Layer inception_4c/relu_3x3
I0323 23:07:31.312719 31804 net.cpp:425] inception_4c/relu_3x3 <- inception_4c/3x3
I0323 23:07:31.312719 31804 net.cpp:386] inception_4c/relu_3x3 -> inception_4c/3x3 (in-place)
I0323 23:07:31.312719 31804 net.cpp:141] Setting up inception_4c/relu_3x3
I0323 23:07:31.312719 31804 net.cpp:148] Top shape: 1 256 14 14 (50176)
I0323 23:07:31.312719 31804 net.cpp:156] Memory required for data: 43188992
I0323 23:07:31.312719 31804 layer_factory.hpp:77] Creating layer inception_4c/5x5_reduce
I0323 23:07:31.312719 31804 net.cpp:91] Creating Layer inception_4c/5x5_reduce
I0323 23:07:31.312719 31804 net.cpp:425] inception_4c/5x5_reduce <- inception_4b/output_inception_4b/output_0_split_2
I0323 23:07:31.312719 31804 net.cpp:399] inception_4c/5x5_reduce -> inception_4c/5x5_reduce
I0323 23:07:31.313721 31804 net.cpp:141] Setting up inception_4c/5x5_reduce
I0323 23:07:31.313721 31804 net.cpp:148] Top shape: 1 24 14 14 (4704)
I0323 23:07:31.313721 31804 net.cpp:156] Memory required for data: 43207808
I0323 23:07:31.313721 31804 layer_factory.hpp:77] Creating layer inception_4c/relu_5x5_reduce
I0323 23:07:31.313721 31804 net.cpp:91] Creating Layer inception_4c/relu_5x5_reduce
I0323 23:07:31.313721 31804 net.cpp:425] inception_4c/relu_5x5_reduce <- inception_4c/5x5_reduce
I0323 23:07:31.313721 31804 net.cpp:386] inception_4c/relu_5x5_reduce -> inception_4c/5x5_reduce (in-place)
I0323 23:07:31.313721 31804 net.cpp:141] Setting up inception_4c/relu_5x5_reduce
I0323 23:07:31.313721 31804 net.cpp:148] Top shape: 1 24 14 14 (4704)
I0323 23:07:31.313721 31804 net.cpp:156] Memory required for data: 43226624
I0323 23:07:31.313721 31804 layer_factory.hpp:77] Creating layer inception_4c/5x5
I0323 23:07:31.313721 31804 net.cpp:91] Creating Layer inception_4c/5x5
I0323 23:07:31.313721 31804 net.cpp:425] inception_4c/5x5 <- inception_4c/5x5_reduce
I0323 23:07:31.313721 31804 net.cpp:399] inception_4c/5x5 -> inception_4c/5x5
I0323 23:07:31.313721 31804 net.cpp:141] Setting up inception_4c/5x5
I0323 23:07:31.313721 31804 net.cpp:148] Top shape: 1 64 14 14 (12544)
I0323 23:07:31.313721 31804 net.cpp:156] Memory required for data: 43276800
I0323 23:07:31.313721 31804 layer_factory.hpp:77] Creating layer inception_4c/relu_5x5
I0323 23:07:31.313721 31804 net.cpp:91] Creating Layer inception_4c/relu_5x5
I0323 23:07:31.313721 31804 net.cpp:425] inception_4c/relu_5x5 <- inception_4c/5x5
I0323 23:07:31.313721 31804 net.cpp:386] inception_4c/relu_5x5 -> inception_4c/5x5 (in-place)
I0323 23:07:31.313721 31804 net.cpp:141] Setting up inception_4c/relu_5x5
I0323 23:07:31.313721 31804 net.cpp:148] Top shape: 1 64 14 14 (12544)
I0323 23:07:31.313721 31804 net.cpp:156] Memory required for data: 43326976
I0323 23:07:31.313721 31804 layer_factory.hpp:77] Creating layer inception_4c/pool
I0323 23:07:31.313721 31804 net.cpp:91] Creating Layer inception_4c/pool
I0323 23:07:31.313721 31804 net.cpp:425] inception_4c/pool <- inception_4b/output_inception_4b/output_0_split_3
I0323 23:07:31.313721 31804 net.cpp:399] inception_4c/pool -> inception_4c/pool
I0323 23:07:31.313721 31804 net.cpp:141] Setting up inception_4c/pool
I0323 23:07:31.313721 31804 net.cpp:148] Top shape: 1 512 14 14 (100352)
I0323 23:07:31.313721 31804 net.cpp:156] Memory required for data: 43728384
I0323 23:07:31.313721 31804 layer_factory.hpp:77] Creating layer inception_4c/pool_proj
I0323 23:07:31.313721 31804 net.cpp:91] Creating Layer inception_4c/pool_proj
I0323 23:07:31.313721 31804 net.cpp:425] inception_4c/pool_proj <- inception_4c/pool
I0323 23:07:31.313721 31804 net.cpp:399] inception_4c/pool_proj -> inception_4c/pool_proj
I0323 23:07:31.314723 31804 net.cpp:141] Setting up inception_4c/pool_proj
I0323 23:07:31.314723 31804 net.cpp:148] Top shape: 1 64 14 14 (12544)
I0323 23:07:31.314723 31804 net.cpp:156] Memory required for data: 43778560
I0323 23:07:31.314723 31804 layer_factory.hpp:77] Creating layer inception_4c/relu_pool_proj
I0323 23:07:31.314723 31804 net.cpp:91] Creating Layer inception_4c/relu_pool_proj
I0323 23:07:31.314723 31804 net.cpp:425] inception_4c/relu_pool_proj <- inception_4c/pool_proj
I0323 23:07:31.314723 31804 net.cpp:386] inception_4c/relu_pool_proj -> inception_4c/pool_proj (in-place)
I0323 23:07:31.314723 31804 net.cpp:141] Setting up inception_4c/relu_pool_proj
I0323 23:07:31.314723 31804 net.cpp:148] Top shape: 1 64 14 14 (12544)
I0323 23:07:31.314723 31804 net.cpp:156] Memory required for data: 43828736
I0323 23:07:31.314723 31804 layer_factory.hpp:77] Creating layer inception_4c/output
I0323 23:07:31.314723 31804 net.cpp:91] Creating Layer inception_4c/output
I0323 23:07:31.314723 31804 net.cpp:425] inception_4c/output <- inception_4c/1x1
I0323 23:07:31.314723 31804 net.cpp:425] inception_4c/output <- inception_4c/3x3
I0323 23:07:31.314723 31804 net.cpp:425] inception_4c/output <- inception_4c/5x5
I0323 23:07:31.314723 31804 net.cpp:425] inception_4c/output <- inception_4c/pool_proj
I0323 23:07:31.314723 31804 net.cpp:399] inception_4c/output -> inception_4c/output
I0323 23:07:31.314723 31804 net.cpp:141] Setting up inception_4c/output
I0323 23:07:31.314723 31804 net.cpp:148] Top shape: 1 512 14 14 (100352)
I0323 23:07:31.314723 31804 net.cpp:156] Memory required for data: 44230144
I0323 23:07:31.314723 31804 layer_factory.hpp:77] Creating layer inception_4c/output_inception_4c/output_0_split
I0323 23:07:31.314723 31804 net.cpp:91] Creating Layer inception_4c/output_inception_4c/output_0_split
I0323 23:07:31.314723 31804 net.cpp:425] inception_4c/output_inception_4c/output_0_split <- inception_4c/output
I0323 23:07:31.314723 31804 net.cpp:399] inception_4c/output_inception_4c/output_0_split -> inception_4c/output_inception_4c/output_0_split_0
I0323 23:07:31.314723 31804 net.cpp:399] inception_4c/output_inception_4c/output_0_split -> inception_4c/output_inception_4c/output_0_split_1
I0323 23:07:31.314723 31804 net.cpp:399] inception_4c/output_inception_4c/output_0_split -> inception_4c/output_inception_4c/output_0_split_2
I0323 23:07:31.314723 31804 net.cpp:399] inception_4c/output_inception_4c/output_0_split -> inception_4c/output_inception_4c/output_0_split_3
I0323 23:07:31.314723 31804 net.cpp:141] Setting up inception_4c/output_inception_4c/output_0_split
I0323 23:07:31.314723 31804 net.cpp:148] Top shape: 1 512 14 14 (100352)
I0323 23:07:31.314723 31804 net.cpp:148] Top shape: 1 512 14 14 (100352)
I0323 23:07:31.314723 31804 net.cpp:148] Top shape: 1 512 14 14 (100352)
I0323 23:07:31.314723 31804 net.cpp:148] Top shape: 1 512 14 14 (100352)
I0323 23:07:31.314723 31804 net.cpp:156] Memory required for data: 45835776
I0323 23:07:31.314723 31804 layer_factory.hpp:77] Creating layer inception_4d/1x1
I0323 23:07:31.314723 31804 net.cpp:91] Creating Layer inception_4d/1x1
I0323 23:07:31.314723 31804 net.cpp:425] inception_4d/1x1 <- inception_4c/output_inception_4c/output_0_split_0
I0323 23:07:31.314723 31804 net.cpp:399] inception_4d/1x1 -> inception_4d/1x1
I0323 23:07:31.315721 31804 net.cpp:141] Setting up inception_4d/1x1
I0323 23:07:31.315721 31804 net.cpp:148] Top shape: 1 112 14 14 (21952)
I0323 23:07:31.315721 31804 net.cpp:156] Memory required for data: 45923584
I0323 23:07:31.315721 31804 layer_factory.hpp:77] Creating layer inception_4d/relu_1x1
I0323 23:07:31.315721 31804 net.cpp:91] Creating Layer inception_4d/relu_1x1
I0323 23:07:31.315721 31804 net.cpp:425] inception_4d/relu_1x1 <- inception_4d/1x1
I0323 23:07:31.315721 31804 net.cpp:386] inception_4d/relu_1x1 -> inception_4d/1x1 (in-place)
I0323 23:07:31.315721 31804 net.cpp:141] Setting up inception_4d/relu_1x1
I0323 23:07:31.315721 31804 net.cpp:148] Top shape: 1 112 14 14 (21952)
I0323 23:07:31.315721 31804 net.cpp:156] Memory required for data: 46011392
I0323 23:07:31.315721 31804 layer_factory.hpp:77] Creating layer inception_4d/3x3_reduce
I0323 23:07:31.315721 31804 net.cpp:91] Creating Layer inception_4d/3x3_reduce
I0323 23:07:31.315721 31804 net.cpp:425] inception_4d/3x3_reduce <- inception_4c/output_inception_4c/output_0_split_1
I0323 23:07:31.315721 31804 net.cpp:399] inception_4d/3x3_reduce -> inception_4d/3x3_reduce
I0323 23:07:31.316721 31804 net.cpp:141] Setting up inception_4d/3x3_reduce
I0323 23:07:31.316721 31804 net.cpp:148] Top shape: 1 144 14 14 (28224)
I0323 23:07:31.316721 31804 net.cpp:156] Memory required for data: 46124288
I0323 23:07:31.316721 31804 layer_factory.hpp:77] Creating layer inception_4d/relu_3x3_reduce
I0323 23:07:31.316721 31804 net.cpp:91] Creating Layer inception_4d/relu_3x3_reduce
I0323 23:07:31.316721 31804 net.cpp:425] inception_4d/relu_3x3_reduce <- inception_4d/3x3_reduce
I0323 23:07:31.316721 31804 net.cpp:386] inception_4d/relu_3x3_reduce -> inception_4d/3x3_reduce (in-place)
I0323 23:07:31.316721 31804 net.cpp:141] Setting up inception_4d/relu_3x3_reduce
I0323 23:07:31.316721 31804 net.cpp:148] Top shape: 1 144 14 14 (28224)
I0323 23:07:31.316721 31804 net.cpp:156] Memory required for data: 46237184
I0323 23:07:31.316721 31804 layer_factory.hpp:77] Creating layer inception_4d/3x3
I0323 23:07:31.316721 31804 net.cpp:91] Creating Layer inception_4d/3x3
I0323 23:07:31.316721 31804 net.cpp:425] inception_4d/3x3 <- inception_4d/3x3_reduce
I0323 23:07:31.316721 31804 net.cpp:399] inception_4d/3x3 -> inception_4d/3x3
I0323 23:07:31.319725 31804 net.cpp:141] Setting up inception_4d/3x3
I0323 23:07:31.319725 31804 net.cpp:148] Top shape: 1 288 14 14 (56448)
I0323 23:07:31.319725 31804 net.cpp:156] Memory required for data: 46462976
I0323 23:07:31.319725 31804 layer_factory.hpp:77] Creating layer inception_4d/relu_3x3
I0323 23:07:31.319725 31804 net.cpp:91] Creating Layer inception_4d/relu_3x3
I0323 23:07:31.319725 31804 net.cpp:425] inception_4d/relu_3x3 <- inception_4d/3x3
I0323 23:07:31.319725 31804 net.cpp:386] inception_4d/relu_3x3 -> inception_4d/3x3 (in-place)
I0323 23:07:31.319725 31804 net.cpp:141] Setting up inception_4d/relu_3x3
I0323 23:07:31.319725 31804 net.cpp:148] Top shape: 1 288 14 14 (56448)
I0323 23:07:31.319725 31804 net.cpp:156] Memory required for data: 46688768
I0323 23:07:31.319725 31804 layer_factory.hpp:77] Creating layer inception_4d/5x5_reduce
I0323 23:07:31.319725 31804 net.cpp:91] Creating Layer inception_4d/5x5_reduce
I0323 23:07:31.319725 31804 net.cpp:425] inception_4d/5x5_reduce <- inception_4c/output_inception_4c/output_0_split_2
I0323 23:07:31.319725 31804 net.cpp:399] inception_4d/5x5_reduce -> inception_4d/5x5_reduce
I0323 23:07:31.319725 31804 net.cpp:141] Setting up inception_4d/5x5_reduce
I0323 23:07:31.319725 31804 net.cpp:148] Top shape: 1 32 14 14 (6272)
I0323 23:07:31.319725 31804 net.cpp:156] Memory required for data: 46713856
I0323 23:07:31.319725 31804 layer_factory.hpp:77] Creating layer inception_4d/relu_5x5_reduce
I0323 23:07:31.319725 31804 net.cpp:91] Creating Layer inception_4d/relu_5x5_reduce
I0323 23:07:31.319725 31804 net.cpp:425] inception_4d/relu_5x5_reduce <- inception_4d/5x5_reduce
I0323 23:07:31.319725 31804 net.cpp:386] inception_4d/relu_5x5_reduce -> inception_4d/5x5_reduce (in-place)
I0323 23:07:31.319725 31804 net.cpp:141] Setting up inception_4d/relu_5x5_reduce
I0323 23:07:31.319725 31804 net.cpp:148] Top shape: 1 32 14 14 (6272)
I0323 23:07:31.319725 31804 net.cpp:156] Memory required for data: 46738944
I0323 23:07:31.319725 31804 layer_factory.hpp:77] Creating layer inception_4d/5x5
I0323 23:07:31.319725 31804 net.cpp:91] Creating Layer inception_4d/5x5
I0323 23:07:31.319725 31804 net.cpp:425] inception_4d/5x5 <- inception_4d/5x5_reduce
I0323 23:07:31.319725 31804 net.cpp:399] inception_4d/5x5 -> inception_4d/5x5
I0323 23:07:31.320724 31804 net.cpp:141] Setting up inception_4d/5x5
I0323 23:07:31.320724 31804 net.cpp:148] Top shape: 1 64 14 14 (12544)
I0323 23:07:31.320724 31804 net.cpp:156] Memory required for data: 46789120
I0323 23:07:31.320724 31804 layer_factory.hpp:77] Creating layer inception_4d/relu_5x5
I0323 23:07:31.320724 31804 net.cpp:91] Creating Layer inception_4d/relu_5x5
I0323 23:07:31.320724 31804 net.cpp:425] inception_4d/relu_5x5 <- inception_4d/5x5
I0323 23:07:31.320724 31804 net.cpp:386] inception_4d/relu_5x5 -> inception_4d/5x5 (in-place)
I0323 23:07:31.320724 31804 net.cpp:141] Setting up inception_4d/relu_5x5
I0323 23:07:31.320724 31804 net.cpp:148] Top shape: 1 64 14 14 (12544)
I0323 23:07:31.320724 31804 net.cpp:156] Memory required for data: 46839296
I0323 23:07:31.320724 31804 layer_factory.hpp:77] Creating layer inception_4d/pool
I0323 23:07:31.320724 31804 net.cpp:91] Creating Layer inception_4d/pool
I0323 23:07:31.320724 31804 net.cpp:425] inception_4d/pool <- inception_4c/output_inception_4c/output_0_split_3
I0323 23:07:31.320724 31804 net.cpp:399] inception_4d/pool -> inception_4d/pool
I0323 23:07:31.320724 31804 net.cpp:141] Setting up inception_4d/pool
I0323 23:07:31.320724 31804 net.cpp:148] Top shape: 1 512 14 14 (100352)
I0323 23:07:31.320724 31804 net.cpp:156] Memory required for data: 47240704
I0323 23:07:31.320724 31804 layer_factory.hpp:77] Creating layer inception_4d/pool_proj
I0323 23:07:31.320724 31804 net.cpp:91] Creating Layer inception_4d/pool_proj
I0323 23:07:31.320724 31804 net.cpp:425] inception_4d/pool_proj <- inception_4d/pool
I0323 23:07:31.320724 31804 net.cpp:399] inception_4d/pool_proj -> inception_4d/pool_proj
I0323 23:07:31.320724 31804 net.cpp:141] Setting up inception_4d/pool_proj
I0323 23:07:31.320724 31804 net.cpp:148] Top shape: 1 64 14 14 (12544)
I0323 23:07:31.320724 31804 net.cpp:156] Memory required for data: 47290880
I0323 23:07:31.320724 31804 layer_factory.hpp:77] Creating layer inception_4d/relu_pool_proj
I0323 23:07:31.320724 31804 net.cpp:91] Creating Layer inception_4d/relu_pool_proj
I0323 23:07:31.320724 31804 net.cpp:425] inception_4d/relu_pool_proj <- inception_4d/pool_proj
I0323 23:07:31.320724 31804 net.cpp:386] inception_4d/relu_pool_proj -> inception_4d/pool_proj (in-place)
I0323 23:07:31.320724 31804 net.cpp:141] Setting up inception_4d/relu_pool_proj
I0323 23:07:31.320724 31804 net.cpp:148] Top shape: 1 64 14 14 (12544)
I0323 23:07:31.320724 31804 net.cpp:156] Memory required for data: 47341056
I0323 23:07:31.320724 31804 layer_factory.hpp:77] Creating layer inception_4d/output
I0323 23:07:31.320724 31804 net.cpp:91] Creating Layer inception_4d/output
I0323 23:07:31.320724 31804 net.cpp:425] inception_4d/output <- inception_4d/1x1
I0323 23:07:31.320724 31804 net.cpp:425] inception_4d/output <- inception_4d/3x3
I0323 23:07:31.320724 31804 net.cpp:425] inception_4d/output <- inception_4d/5x5
I0323 23:07:31.320724 31804 net.cpp:425] inception_4d/output <- inception_4d/pool_proj
I0323 23:07:31.320724 31804 net.cpp:399] inception_4d/output -> inception_4d/output
I0323 23:07:31.321724 31804 net.cpp:141] Setting up inception_4d/output
I0323 23:07:31.321724 31804 net.cpp:148] Top shape: 1 528 14 14 (103488)
I0323 23:07:31.321724 31804 net.cpp:156] Memory required for data: 47755008
I0323 23:07:31.321724 31804 layer_factory.hpp:77] Creating layer inception_4d/output_inception_4d/output_0_split
I0323 23:07:31.321724 31804 net.cpp:91] Creating Layer inception_4d/output_inception_4d/output_0_split
I0323 23:07:31.321724 31804 net.cpp:425] inception_4d/output_inception_4d/output_0_split <- inception_4d/output
I0323 23:07:31.321724 31804 net.cpp:399] inception_4d/output_inception_4d/output_0_split -> inception_4d/output_inception_4d/output_0_split_0
I0323 23:07:31.321724 31804 net.cpp:399] inception_4d/output_inception_4d/output_0_split -> inception_4d/output_inception_4d/output_0_split_1
I0323 23:07:31.321724 31804 net.cpp:399] inception_4d/output_inception_4d/output_0_split -> inception_4d/output_inception_4d/output_0_split_2
I0323 23:07:31.321724 31804 net.cpp:399] inception_4d/output_inception_4d/output_0_split -> inception_4d/output_inception_4d/output_0_split_3
I0323 23:07:31.321724 31804 net.cpp:141] Setting up inception_4d/output_inception_4d/output_0_split
I0323 23:07:31.321724 31804 net.cpp:148] Top shape: 1 528 14 14 (103488)
I0323 23:07:31.321724 31804 net.cpp:148] Top shape: 1 528 14 14 (103488)
I0323 23:07:31.321724 31804 net.cpp:148] Top shape: 1 528 14 14 (103488)
I0323 23:07:31.321724 31804 net.cpp:148] Top shape: 1 528 14 14 (103488)
I0323 23:07:31.321724 31804 net.cpp:156] Memory required for data: 49410816
I0323 23:07:31.321724 31804 layer_factory.hpp:77] Creating layer inception_4e/1x1
I0323 23:07:31.321724 31804 net.cpp:91] Creating Layer inception_4e/1x1
I0323 23:07:31.321724 31804 net.cpp:425] inception_4e/1x1 <- inception_4d/output_inception_4d/output_0_split_0
I0323 23:07:31.321724 31804 net.cpp:399] inception_4e/1x1 -> inception_4e/1x1
I0323 23:07:31.322726 31804 net.cpp:141] Setting up inception_4e/1x1
I0323 23:07:31.322726 31804 net.cpp:148] Top shape: 1 256 14 14 (50176)
I0323 23:07:31.322726 31804 net.cpp:156] Memory required for data: 49611520
I0323 23:07:31.322726 31804 layer_factory.hpp:77] Creating layer inception_4e/relu_1x1
I0323 23:07:31.322726 31804 net.cpp:91] Creating Layer inception_4e/relu_1x1
I0323 23:07:31.322726 31804 net.cpp:425] inception_4e/relu_1x1 <- inception_4e/1x1
I0323 23:07:31.322726 31804 net.cpp:386] inception_4e/relu_1x1 -> inception_4e/1x1 (in-place)
I0323 23:07:31.322726 31804 net.cpp:141] Setting up inception_4e/relu_1x1
I0323 23:07:31.322726 31804 net.cpp:148] Top shape: 1 256 14 14 (50176)
I0323 23:07:31.322726 31804 net.cpp:156] Memory required for data: 49812224
I0323 23:07:31.322726 31804 layer_factory.hpp:77] Creating layer inception_4e/3x3_reduce
I0323 23:07:31.322726 31804 net.cpp:91] Creating Layer inception_4e/3x3_reduce
I0323 23:07:31.322726 31804 net.cpp:425] inception_4e/3x3_reduce <- inception_4d/output_inception_4d/output_0_split_1
I0323 23:07:31.322726 31804 net.cpp:399] inception_4e/3x3_reduce -> inception_4e/3x3_reduce
I0323 23:07:31.323726 31804 net.cpp:141] Setting up inception_4e/3x3_reduce
I0323 23:07:31.323726 31804 net.cpp:148] Top shape: 1 160 14 14 (31360)
I0323 23:07:31.323726 31804 net.cpp:156] Memory required for data: 49937664
I0323 23:07:31.323726 31804 layer_factory.hpp:77] Creating layer inception_4e/relu_3x3_reduce
I0323 23:07:31.323726 31804 net.cpp:91] Creating Layer inception_4e/relu_3x3_reduce
I0323 23:07:31.323726 31804 net.cpp:425] inception_4e/relu_3x3_reduce <- inception_4e/3x3_reduce
I0323 23:07:31.323726 31804 net.cpp:386] inception_4e/relu_3x3_reduce -> inception_4e/3x3_reduce (in-place)
I0323 23:07:31.323726 31804 net.cpp:141] Setting up inception_4e/relu_3x3_reduce
I0323 23:07:31.323726 31804 net.cpp:148] Top shape: 1 160 14 14 (31360)
I0323 23:07:31.323726 31804 net.cpp:156] Memory required for data: 50063104
I0323 23:07:31.323726 31804 layer_factory.hpp:77] Creating layer inception_4e/3x3
I0323 23:07:31.323726 31804 net.cpp:91] Creating Layer inception_4e/3x3
I0323 23:07:31.323726 31804 net.cpp:425] inception_4e/3x3 <- inception_4e/3x3_reduce
I0323 23:07:31.323726 31804 net.cpp:399] inception_4e/3x3 -> inception_4e/3x3
I0323 23:07:31.327729 31804 net.cpp:141] Setting up inception_4e/3x3
I0323 23:07:31.327729 31804 net.cpp:148] Top shape: 1 320 14 14 (62720)
I0323 23:07:31.327729 31804 net.cpp:156] Memory required for data: 50313984
I0323 23:07:31.327729 31804 layer_factory.hpp:77] Creating layer inception_4e/relu_3x3
I0323 23:07:31.327729 31804 net.cpp:91] Creating Layer inception_4e/relu_3x3
I0323 23:07:31.327729 31804 net.cpp:425] inception_4e/relu_3x3 <- inception_4e/3x3
I0323 23:07:31.327729 31804 net.cpp:386] inception_4e/relu_3x3 -> inception_4e/3x3 (in-place)
I0323 23:07:31.327729 31804 net.cpp:141] Setting up inception_4e/relu_3x3
I0323 23:07:31.327729 31804 net.cpp:148] Top shape: 1 320 14 14 (62720)
I0323 23:07:31.327729 31804 net.cpp:156] Memory required for data: 50564864
I0323 23:07:31.327729 31804 layer_factory.hpp:77] Creating layer inception_4e/5x5_reduce
I0323 23:07:31.327729 31804 net.cpp:91] Creating Layer inception_4e/5x5_reduce
I0323 23:07:31.327729 31804 net.cpp:425] inception_4e/5x5_reduce <- inception_4d/output_inception_4d/output_0_split_2
I0323 23:07:31.327729 31804 net.cpp:399] inception_4e/5x5_reduce -> inception_4e/5x5_reduce
I0323 23:07:31.328730 31804 net.cpp:141] Setting up inception_4e/5x5_reduce
I0323 23:07:31.328730 31804 net.cpp:148] Top shape: 1 32 14 14 (6272)
I0323 23:07:31.328730 31804 net.cpp:156] Memory required for data: 50589952
I0323 23:07:31.328730 31804 layer_factory.hpp:77] Creating layer inception_4e/relu_5x5_reduce
I0323 23:07:31.328730 31804 net.cpp:91] Creating Layer inception_4e/relu_5x5_reduce
I0323 23:07:31.328730 31804 net.cpp:425] inception_4e/relu_5x5_reduce <- inception_4e/5x5_reduce
I0323 23:07:31.328730 31804 net.cpp:386] inception_4e/relu_5x5_reduce -> inception_4e/5x5_reduce (in-place)
I0323 23:07:31.328730 31804 net.cpp:141] Setting up inception_4e/relu_5x5_reduce
I0323 23:07:31.328730 31804 net.cpp:148] Top shape: 1 32 14 14 (6272)
I0323 23:07:31.328730 31804 net.cpp:156] Memory required for data: 50615040
I0323 23:07:31.328730 31804 layer_factory.hpp:77] Creating layer inception_4e/5x5
I0323 23:07:31.328730 31804 net.cpp:91] Creating Layer inception_4e/5x5
I0323 23:07:31.328730 31804 net.cpp:425] inception_4e/5x5 <- inception_4e/5x5_reduce
I0323 23:07:31.328730 31804 net.cpp:399] inception_4e/5x5 -> inception_4e/5x5
I0323 23:07:31.330734 31804 net.cpp:141] Setting up inception_4e/5x5
I0323 23:07:31.330734 31804 net.cpp:148] Top shape: 1 128 14 14 (25088)
I0323 23:07:31.330734 31804 net.cpp:156] Memory required for data: 50715392
I0323 23:07:31.330734 31804 layer_factory.hpp:77] Creating layer inception_4e/relu_5x5
I0323 23:07:31.330734 31804 net.cpp:91] Creating Layer inception_4e/relu_5x5
I0323 23:07:31.330734 31804 net.cpp:425] inception_4e/relu_5x5 <- inception_4e/5x5
I0323 23:07:31.330734 31804 net.cpp:386] inception_4e/relu_5x5 -> inception_4e/5x5 (in-place)
I0323 23:07:31.330734 31804 net.cpp:141] Setting up inception_4e/relu_5x5
I0323 23:07:31.330734 31804 net.cpp:148] Top shape: 1 128 14 14 (25088)
I0323 23:07:31.330734 31804 net.cpp:156] Memory required for data: 50815744
I0323 23:07:31.330734 31804 layer_factory.hpp:77] Creating layer inception_4e/pool
I0323 23:07:31.330734 31804 net.cpp:91] Creating Layer inception_4e/pool
I0323 23:07:31.330734 31804 net.cpp:425] inception_4e/pool <- inception_4d/output_inception_4d/output_0_split_3
I0323 23:07:31.330734 31804 net.cpp:399] inception_4e/pool -> inception_4e/pool
I0323 23:07:31.330734 31804 net.cpp:141] Setting up inception_4e/pool
I0323 23:07:31.330734 31804 net.cpp:148] Top shape: 1 528 14 14 (103488)
I0323 23:07:31.330734 31804 net.cpp:156] Memory required for data: 51229696
I0323 23:07:31.330734 31804 layer_factory.hpp:77] Creating layer inception_4e/pool_proj
I0323 23:07:31.330734 31804 net.cpp:91] Creating Layer inception_4e/pool_proj
I0323 23:07:31.330734 31804 net.cpp:425] inception_4e/pool_proj <- inception_4e/pool
I0323 23:07:31.330734 31804 net.cpp:399] inception_4e/pool_proj -> inception_4e/pool_proj
I0323 23:07:31.330734 31804 net.cpp:141] Setting up inception_4e/pool_proj
I0323 23:07:31.330734 31804 net.cpp:148] Top shape: 1 128 14 14 (25088)
I0323 23:07:31.330734 31804 net.cpp:156] Memory required for data: 51330048
I0323 23:07:31.330734 31804 layer_factory.hpp:77] Creating layer inception_4e/relu_pool_proj
I0323 23:07:31.330734 31804 net.cpp:91] Creating Layer inception_4e/relu_pool_proj
I0323 23:07:31.330734 31804 net.cpp:425] inception_4e/relu_pool_proj <- inception_4e/pool_proj
I0323 23:07:31.330734 31804 net.cpp:386] inception_4e/relu_pool_proj -> inception_4e/pool_proj (in-place)
I0323 23:07:31.330734 31804 net.cpp:141] Setting up inception_4e/relu_pool_proj
I0323 23:07:31.330734 31804 net.cpp:148] Top shape: 1 128 14 14 (25088)
I0323 23:07:31.330734 31804 net.cpp:156] Memory required for data: 51430400
I0323 23:07:31.330734 31804 layer_factory.hpp:77] Creating layer inception_4e/output
I0323 23:07:31.330734 31804 net.cpp:91] Creating Layer inception_4e/output
I0323 23:07:31.331753 31804 net.cpp:425] inception_4e/output <- inception_4e/1x1
I0323 23:07:31.331753 31804 net.cpp:425] inception_4e/output <- inception_4e/3x3
I0323 23:07:31.331753 31804 net.cpp:425] inception_4e/output <- inception_4e/5x5
I0323 23:07:31.331753 31804 net.cpp:425] inception_4e/output <- inception_4e/pool_proj
I0323 23:07:31.331753 31804 net.cpp:399] inception_4e/output -> inception_4e/output
I0323 23:07:31.331753 31804 net.cpp:141] Setting up inception_4e/output
I0323 23:07:31.331753 31804 net.cpp:148] Top shape: 1 832 14 14 (163072)
I0323 23:07:31.331753 31804 net.cpp:156] Memory required for data: 52082688
I0323 23:07:31.331753 31804 layer_factory.hpp:77] Creating layer pool4/3x3_s2
I0323 23:07:31.331753 31804 net.cpp:91] Creating Layer pool4/3x3_s2
I0323 23:07:31.331753 31804 net.cpp:425] pool4/3x3_s2 <- inception_4e/output
I0323 23:07:31.331753 31804 net.cpp:399] pool4/3x3_s2 -> pool4/3x3_s2
I0323 23:07:31.331753 31804 net.cpp:141] Setting up pool4/3x3_s2
I0323 23:07:31.331753 31804 net.cpp:148] Top shape: 1 832 7 7 (40768)
I0323 23:07:31.331753 31804 net.cpp:156] Memory required for data: 52245760
I0323 23:07:31.331753 31804 layer_factory.hpp:77] Creating layer pool4/3x3_s2_pool4/3x3_s2_0_split
I0323 23:07:31.331753 31804 net.cpp:91] Creating Layer pool4/3x3_s2_pool4/3x3_s2_0_split
I0323 23:07:31.331753 31804 net.cpp:425] pool4/3x3_s2_pool4/3x3_s2_0_split <- pool4/3x3_s2
I0323 23:07:31.331753 31804 net.cpp:399] pool4/3x3_s2_pool4/3x3_s2_0_split -> pool4/3x3_s2_pool4/3x3_s2_0_split_0
I0323 23:07:31.331753 31804 net.cpp:399] pool4/3x3_s2_pool4/3x3_s2_0_split -> pool4/3x3_s2_pool4/3x3_s2_0_split_1
I0323 23:07:31.331753 31804 net.cpp:399] pool4/3x3_s2_pool4/3x3_s2_0_split -> pool4/3x3_s2_pool4/3x3_s2_0_split_2
I0323 23:07:31.331753 31804 net.cpp:399] pool4/3x3_s2_pool4/3x3_s2_0_split -> pool4/3x3_s2_pool4/3x3_s2_0_split_3
I0323 23:07:31.331753 31804 net.cpp:141] Setting up pool4/3x3_s2_pool4/3x3_s2_0_split
I0323 23:07:31.331753 31804 net.cpp:148] Top shape: 1 832 7 7 (40768)
I0323 23:07:31.331753 31804 net.cpp:148] Top shape: 1 832 7 7 (40768)
I0323 23:07:31.331753 31804 net.cpp:148] Top shape: 1 832 7 7 (40768)
I0323 23:07:31.331753 31804 net.cpp:148] Top shape: 1 832 7 7 (40768)
I0323 23:07:31.331753 31804 net.cpp:156] Memory required for data: 52898048
I0323 23:07:31.331753 31804 layer_factory.hpp:77] Creating layer inception_5a/1x1
I0323 23:07:31.331753 31804 net.cpp:91] Creating Layer inception_5a/1x1
I0323 23:07:31.331753 31804 net.cpp:425] inception_5a/1x1 <- pool4/3x3_s2_pool4/3x3_s2_0_split_0
I0323 23:07:31.331753 31804 net.cpp:399] inception_5a/1x1 -> inception_5a/1x1
I0323 23:07:31.333755 31804 net.cpp:141] Setting up inception_5a/1x1
I0323 23:07:31.333755 31804 net.cpp:148] Top shape: 1 256 7 7 (12544)
I0323 23:07:31.333755 31804 net.cpp:156] Memory required for data: 52948224
I0323 23:07:31.333755 31804 layer_factory.hpp:77] Creating layer inception_5a/relu_1x1
I0323 23:07:31.333755 31804 net.cpp:91] Creating Layer inception_5a/relu_1x1
I0323 23:07:31.333755 31804 net.cpp:425] inception_5a/relu_1x1 <- inception_5a/1x1
I0323 23:07:31.333755 31804 net.cpp:386] inception_5a/relu_1x1 -> inception_5a/1x1 (in-place)
I0323 23:07:31.333755 31804 net.cpp:141] Setting up inception_5a/relu_1x1
I0323 23:07:31.333755 31804 net.cpp:148] Top shape: 1 256 7 7 (12544)
I0323 23:07:31.333755 31804 net.cpp:156] Memory required for data: 52998400
I0323 23:07:31.333755 31804 layer_factory.hpp:77] Creating layer inception_5a/3x3_reduce
I0323 23:07:31.333755 31804 net.cpp:91] Creating Layer inception_5a/3x3_reduce
I0323 23:07:31.333755 31804 net.cpp:425] inception_5a/3x3_reduce <- pool4/3x3_s2_pool4/3x3_s2_0_split_1
I0323 23:07:31.333755 31804 net.cpp:399] inception_5a/3x3_reduce -> inception_5a/3x3_reduce
I0323 23:07:31.334754 31804 net.cpp:141] Setting up inception_5a/3x3_reduce
I0323 23:07:31.334754 31804 net.cpp:148] Top shape: 1 160 7 7 (7840)
I0323 23:07:31.334754 31804 net.cpp:156] Memory required for data: 53029760
I0323 23:07:31.334754 31804 layer_factory.hpp:77] Creating layer inception_5a/relu_3x3_reduce
I0323 23:07:31.334754 31804 net.cpp:91] Creating Layer inception_5a/relu_3x3_reduce
I0323 23:07:31.334754 31804 net.cpp:425] inception_5a/relu_3x3_reduce <- inception_5a/3x3_reduce
I0323 23:07:31.334754 31804 net.cpp:386] inception_5a/relu_3x3_reduce -> inception_5a/3x3_reduce (in-place)
I0323 23:07:31.334754 31804 net.cpp:141] Setting up inception_5a/relu_3x3_reduce
I0323 23:07:31.334754 31804 net.cpp:148] Top shape: 1 160 7 7 (7840)
I0323 23:07:31.334754 31804 net.cpp:156] Memory required for data: 53061120
I0323 23:07:31.334754 31804 layer_factory.hpp:77] Creating layer inception_5a/3x3
I0323 23:07:31.334754 31804 net.cpp:91] Creating Layer inception_5a/3x3
I0323 23:07:31.334754 31804 net.cpp:425] inception_5a/3x3 <- inception_5a/3x3_reduce
I0323 23:07:31.334754 31804 net.cpp:399] inception_5a/3x3 -> inception_5a/3x3
I0323 23:07:31.338758 31804 net.cpp:141] Setting up inception_5a/3x3
I0323 23:07:31.338758 31804 net.cpp:148] Top shape: 1 320 7 7 (15680)
I0323 23:07:31.338758 31804 net.cpp:156] Memory required for data: 53123840
I0323 23:07:31.338758 31804 layer_factory.hpp:77] Creating layer inception_5a/relu_3x3
I0323 23:07:31.338758 31804 net.cpp:91] Creating Layer inception_5a/relu_3x3
I0323 23:07:31.338758 31804 net.cpp:425] inception_5a/relu_3x3 <- inception_5a/3x3
I0323 23:07:31.338758 31804 net.cpp:386] inception_5a/relu_3x3 -> inception_5a/3x3 (in-place)
I0323 23:07:31.338758 31804 net.cpp:141] Setting up inception_5a/relu_3x3
I0323 23:07:31.338758 31804 net.cpp:148] Top shape: 1 320 7 7 (15680)
I0323 23:07:31.338758 31804 net.cpp:156] Memory required for data: 53186560
I0323 23:07:31.338758 31804 layer_factory.hpp:77] Creating layer inception_5a/5x5_reduce
I0323 23:07:31.338758 31804 net.cpp:91] Creating Layer inception_5a/5x5_reduce
I0323 23:07:31.339758 31804 net.cpp:425] inception_5a/5x5_reduce <- pool4/3x3_s2_pool4/3x3_s2_0_split_2
I0323 23:07:31.339758 31804 net.cpp:399] inception_5a/5x5_reduce -> inception_5a/5x5_reduce
I0323 23:07:31.339758 31804 net.cpp:141] Setting up inception_5a/5x5_reduce
I0323 23:07:31.339758 31804 net.cpp:148] Top shape: 1 32 7 7 (1568)
I0323 23:07:31.339758 31804 net.cpp:156] Memory required for data: 53192832
I0323 23:07:31.339758 31804 layer_factory.hpp:77] Creating layer inception_5a/relu_5x5_reduce
I0323 23:07:31.339758 31804 net.cpp:91] Creating Layer inception_5a/relu_5x5_reduce
I0323 23:07:31.339758 31804 net.cpp:425] inception_5a/relu_5x5_reduce <- inception_5a/5x5_reduce
I0323 23:07:31.339758 31804 net.cpp:386] inception_5a/relu_5x5_reduce -> inception_5a/5x5_reduce (in-place)
I0323 23:07:31.339758 31804 net.cpp:141] Setting up inception_5a/relu_5x5_reduce
I0323 23:07:31.339758 31804 net.cpp:148] Top shape: 1 32 7 7 (1568)
I0323 23:07:31.339758 31804 net.cpp:156] Memory required for data: 53199104
I0323 23:07:31.339758 31804 layer_factory.hpp:77] Creating layer inception_5a/5x5
I0323 23:07:31.339758 31804 net.cpp:91] Creating Layer inception_5a/5x5
I0323 23:07:31.339758 31804 net.cpp:425] inception_5a/5x5 <- inception_5a/5x5_reduce
I0323 23:07:31.339758 31804 net.cpp:399] inception_5a/5x5 -> inception_5a/5x5
I0323 23:07:31.340759 31804 net.cpp:141] Setting up inception_5a/5x5
I0323 23:07:31.340759 31804 net.cpp:148] Top shape: 1 128 7 7 (6272)
I0323 23:07:31.340759 31804 net.cpp:156] Memory required for data: 53224192
I0323 23:07:31.340759 31804 layer_factory.hpp:77] Creating layer inception_5a/relu_5x5
I0323 23:07:31.340759 31804 net.cpp:91] Creating Layer inception_5a/relu_5x5
I0323 23:07:31.340759 31804 net.cpp:425] inception_5a/relu_5x5 <- inception_5a/5x5
I0323 23:07:31.340759 31804 net.cpp:386] inception_5a/relu_5x5 -> inception_5a/5x5 (in-place)
I0323 23:07:31.340759 31804 net.cpp:141] Setting up inception_5a/relu_5x5
I0323 23:07:31.340759 31804 net.cpp:148] Top shape: 1 128 7 7 (6272)
I0323 23:07:31.340759 31804 net.cpp:156] Memory required for data: 53249280
I0323 23:07:31.340759 31804 layer_factory.hpp:77] Creating layer inception_5a/pool
I0323 23:07:31.340759 31804 net.cpp:91] Creating Layer inception_5a/pool
I0323 23:07:31.340759 31804 net.cpp:425] inception_5a/pool <- pool4/3x3_s2_pool4/3x3_s2_0_split_3
I0323 23:07:31.340759 31804 net.cpp:399] inception_5a/pool -> inception_5a/pool
I0323 23:07:31.340759 31804 net.cpp:141] Setting up inception_5a/pool
I0323 23:07:31.340759 31804 net.cpp:148] Top shape: 1 832 7 7 (40768)
I0323 23:07:31.340759 31804 net.cpp:156] Memory required for data: 53412352
I0323 23:07:31.340759 31804 layer_factory.hpp:77] Creating layer inception_5a/pool_proj
I0323 23:07:31.340759 31804 net.cpp:91] Creating Layer inception_5a/pool_proj
I0323 23:07:31.340759 31804 net.cpp:425] inception_5a/pool_proj <- inception_5a/pool
I0323 23:07:31.340759 31804 net.cpp:399] inception_5a/pool_proj -> inception_5a/pool_proj
I0323 23:07:31.341739 31804 net.cpp:141] Setting up inception_5a/pool_proj
I0323 23:07:31.341739 31804 net.cpp:148] Top shape: 1 128 7 7 (6272)
I0323 23:07:31.341739 31804 net.cpp:156] Memory required for data: 53437440
I0323 23:07:31.341739 31804 layer_factory.hpp:77] Creating layer inception_5a/relu_pool_proj
I0323 23:07:31.341739 31804 net.cpp:91] Creating Layer inception_5a/relu_pool_proj
I0323 23:07:31.341739 31804 net.cpp:425] inception_5a/relu_pool_proj <- inception_5a/pool_proj
I0323 23:07:31.341739 31804 net.cpp:386] inception_5a/relu_pool_proj -> inception_5a/pool_proj (in-place)
I0323 23:07:31.341739 31804 net.cpp:141] Setting up inception_5a/relu_pool_proj
I0323 23:07:31.341739 31804 net.cpp:148] Top shape: 1 128 7 7 (6272)
I0323 23:07:31.341739 31804 net.cpp:156] Memory required for data: 53462528
I0323 23:07:31.341739 31804 layer_factory.hpp:77] Creating layer inception_5a/output
I0323 23:07:31.341739 31804 net.cpp:91] Creating Layer inception_5a/output
I0323 23:07:31.341739 31804 net.cpp:425] inception_5a/output <- inception_5a/1x1
I0323 23:07:31.341739 31804 net.cpp:425] inception_5a/output <- inception_5a/3x3
I0323 23:07:31.341739 31804 net.cpp:425] inception_5a/output <- inception_5a/5x5
I0323 23:07:31.341739 31804 net.cpp:425] inception_5a/output <- inception_5a/pool_proj
I0323 23:07:31.341739 31804 net.cpp:399] inception_5a/output -> inception_5a/output
I0323 23:07:31.341739 31804 net.cpp:141] Setting up inception_5a/output
I0323 23:07:31.341739 31804 net.cpp:148] Top shape: 1 832 7 7 (40768)
I0323 23:07:31.341739 31804 net.cpp:156] Memory required for data: 53625600
I0323 23:07:31.341739 31804 layer_factory.hpp:77] Creating layer inception_5a/output_inception_5a/output_0_split
I0323 23:07:31.341739 31804 net.cpp:91] Creating Layer inception_5a/output_inception_5a/output_0_split
I0323 23:07:31.341739 31804 net.cpp:425] inception_5a/output_inception_5a/output_0_split <- inception_5a/output
I0323 23:07:31.341739 31804 net.cpp:399] inception_5a/output_inception_5a/output_0_split -> inception_5a/output_inception_5a/output_0_split_0
I0323 23:07:31.341739 31804 net.cpp:399] inception_5a/output_inception_5a/output_0_split -> inception_5a/output_inception_5a/output_0_split_1
I0323 23:07:31.341739 31804 net.cpp:399] inception_5a/output_inception_5a/output_0_split -> inception_5a/output_inception_5a/output_0_split_2
I0323 23:07:31.341739 31804 net.cpp:399] inception_5a/output_inception_5a/output_0_split -> inception_5a/output_inception_5a/output_0_split_3
I0323 23:07:31.341739 31804 net.cpp:141] Setting up inception_5a/output_inception_5a/output_0_split
I0323 23:07:31.341739 31804 net.cpp:148] Top shape: 1 832 7 7 (40768)
I0323 23:07:31.341739 31804 net.cpp:148] Top shape: 1 832 7 7 (40768)
I0323 23:07:31.341739 31804 net.cpp:148] Top shape: 1 832 7 7 (40768)
I0323 23:07:31.341739 31804 net.cpp:148] Top shape: 1 832 7 7 (40768)
I0323 23:07:31.341739 31804 net.cpp:156] Memory required for data: 54277888
I0323 23:07:31.341739 31804 layer_factory.hpp:77] Creating layer inception_5b/1x1
I0323 23:07:31.342761 31804 net.cpp:91] Creating Layer inception_5b/1x1
I0323 23:07:31.342761 31804 net.cpp:425] inception_5b/1x1 <- inception_5a/output_inception_5a/output_0_split_0
I0323 23:07:31.342761 31804 net.cpp:399] inception_5b/1x1 -> inception_5b/1x1
I0323 23:07:31.345742 31804 net.cpp:141] Setting up inception_5b/1x1
I0323 23:07:31.345742 31804 net.cpp:148] Top shape: 1 384 7 7 (18816)
I0323 23:07:31.345742 31804 net.cpp:156] Memory required for data: 54353152
I0323 23:07:31.345742 31804 layer_factory.hpp:77] Creating layer inception_5b/relu_1x1
I0323 23:07:31.345742 31804 net.cpp:91] Creating Layer inception_5b/relu_1x1
I0323 23:07:31.345742 31804 net.cpp:425] inception_5b/relu_1x1 <- inception_5b/1x1
I0323 23:07:31.345742 31804 net.cpp:386] inception_5b/relu_1x1 -> inception_5b/1x1 (in-place)
I0323 23:07:31.345742 31804 net.cpp:141] Setting up inception_5b/relu_1x1
I0323 23:07:31.345742 31804 net.cpp:148] Top shape: 1 384 7 7 (18816)
I0323 23:07:31.345742 31804 net.cpp:156] Memory required for data: 54428416
I0323 23:07:31.345742 31804 layer_factory.hpp:77] Creating layer inception_5b/3x3_reduce
I0323 23:07:31.345742 31804 net.cpp:91] Creating Layer inception_5b/3x3_reduce
I0323 23:07:31.345742 31804 net.cpp:425] inception_5b/3x3_reduce <- inception_5a/output_inception_5a/output_0_split_1
I0323 23:07:31.345742 31804 net.cpp:399] inception_5b/3x3_reduce -> inception_5b/3x3_reduce
I0323 23:07:31.347744 31804 net.cpp:141] Setting up inception_5b/3x3_reduce
I0323 23:07:31.347744 31804 net.cpp:148] Top shape: 1 192 7 7 (9408)
I0323 23:07:31.347744 31804 net.cpp:156] Memory required for data: 54466048
I0323 23:07:31.347744 31804 layer_factory.hpp:77] Creating layer inception_5b/relu_3x3_reduce
I0323 23:07:31.347744 31804 net.cpp:91] Creating Layer inception_5b/relu_3x3_reduce
I0323 23:07:31.347744 31804 net.cpp:425] inception_5b/relu_3x3_reduce <- inception_5b/3x3_reduce
I0323 23:07:31.347744 31804 net.cpp:386] inception_5b/relu_3x3_reduce -> inception_5b/3x3_reduce (in-place)
I0323 23:07:31.347744 31804 net.cpp:141] Setting up inception_5b/relu_3x3_reduce
I0323 23:07:31.347744 31804 net.cpp:148] Top shape: 1 192 7 7 (9408)
I0323 23:07:31.347744 31804 net.cpp:156] Memory required for data: 54503680
I0323 23:07:31.347744 31804 layer_factory.hpp:77] Creating layer inception_5b/3x3
I0323 23:07:31.347744 31804 net.cpp:91] Creating Layer inception_5b/3x3
I0323 23:07:31.347744 31804 net.cpp:425] inception_5b/3x3 <- inception_5b/3x3_reduce
I0323 23:07:31.347744 31804 net.cpp:399] inception_5b/3x3 -> inception_5b/3x3
I0323 23:07:31.353747 31804 net.cpp:141] Setting up inception_5b/3x3
I0323 23:07:31.353747 31804 net.cpp:148] Top shape: 1 384 7 7 (18816)
I0323 23:07:31.353747 31804 net.cpp:156] Memory required for data: 54578944
I0323 23:07:31.353747 31804 layer_factory.hpp:77] Creating layer inception_5b/relu_3x3
I0323 23:07:31.353747 31804 net.cpp:91] Creating Layer inception_5b/relu_3x3
I0323 23:07:31.353747 31804 net.cpp:425] inception_5b/relu_3x3 <- inception_5b/3x3
I0323 23:07:31.353747 31804 net.cpp:386] inception_5b/relu_3x3 -> inception_5b/3x3 (in-place)
I0323 23:07:31.353747 31804 net.cpp:141] Setting up inception_5b/relu_3x3
I0323 23:07:31.353747 31804 net.cpp:148] Top shape: 1 384 7 7 (18816)
I0323 23:07:31.353747 31804 net.cpp:156] Memory required for data: 54654208
I0323 23:07:31.353747 31804 layer_factory.hpp:77] Creating layer inception_5b/5x5_reduce
I0323 23:07:31.353747 31804 net.cpp:91] Creating Layer inception_5b/5x5_reduce
I0323 23:07:31.353747 31804 net.cpp:425] inception_5b/5x5_reduce <- inception_5a/output_inception_5a/output_0_split_2
I0323 23:07:31.353747 31804 net.cpp:399] inception_5b/5x5_reduce -> inception_5b/5x5_reduce
I0323 23:07:31.354751 31804 net.cpp:141] Setting up inception_5b/5x5_reduce
I0323 23:07:31.354751 31804 net.cpp:148] Top shape: 1 48 7 7 (2352)
I0323 23:07:31.354751 31804 net.cpp:156] Memory required for data: 54663616
I0323 23:07:31.354751 31804 layer_factory.hpp:77] Creating layer inception_5b/relu_5x5_reduce
I0323 23:07:31.354751 31804 net.cpp:91] Creating Layer inception_5b/relu_5x5_reduce
I0323 23:07:31.354751 31804 net.cpp:425] inception_5b/relu_5x5_reduce <- inception_5b/5x5_reduce
I0323 23:07:31.354751 31804 net.cpp:386] inception_5b/relu_5x5_reduce -> inception_5b/5x5_reduce (in-place)
I0323 23:07:31.354751 31804 net.cpp:141] Setting up inception_5b/relu_5x5_reduce
I0323 23:07:31.354751 31804 net.cpp:148] Top shape: 1 48 7 7 (2352)
I0323 23:07:31.354751 31804 net.cpp:156] Memory required for data: 54673024
I0323 23:07:31.354751 31804 layer_factory.hpp:77] Creating layer inception_5b/5x5
I0323 23:07:31.354751 31804 net.cpp:91] Creating Layer inception_5b/5x5
I0323 23:07:31.354751 31804 net.cpp:425] inception_5b/5x5 <- inception_5b/5x5_reduce
I0323 23:07:31.354751 31804 net.cpp:399] inception_5b/5x5 -> inception_5b/5x5
I0323 23:07:31.356753 31804 net.cpp:141] Setting up inception_5b/5x5
I0323 23:07:31.356753 31804 net.cpp:148] Top shape: 1 128 7 7 (6272)
I0323 23:07:31.356753 31804 net.cpp:156] Memory required for data: 54698112
I0323 23:07:31.356753 31804 layer_factory.hpp:77] Creating layer inception_5b/relu_5x5
I0323 23:07:31.356753 31804 net.cpp:91] Creating Layer inception_5b/relu_5x5
I0323 23:07:31.356753 31804 net.cpp:425] inception_5b/relu_5x5 <- inception_5b/5x5
I0323 23:07:31.356753 31804 net.cpp:386] inception_5b/relu_5x5 -> inception_5b/5x5 (in-place)
I0323 23:07:31.356753 31804 net.cpp:141] Setting up inception_5b/relu_5x5
I0323 23:07:31.356753 31804 net.cpp:148] Top shape: 1 128 7 7 (6272)
I0323 23:07:31.356753 31804 net.cpp:156] Memory required for data: 54723200
I0323 23:07:31.356753 31804 layer_factory.hpp:77] Creating layer inception_5b/pool
I0323 23:07:31.356753 31804 net.cpp:91] Creating Layer inception_5b/pool
I0323 23:07:31.356753 31804 net.cpp:425] inception_5b/pool <- inception_5a/output_inception_5a/output_0_split_3
I0323 23:07:31.356753 31804 net.cpp:399] inception_5b/pool -> inception_5b/pool
I0323 23:07:31.356753 31804 net.cpp:141] Setting up inception_5b/pool
I0323 23:07:31.356753 31804 net.cpp:148] Top shape: 1 832 7 7 (40768)
I0323 23:07:31.356753 31804 net.cpp:156] Memory required for data: 54886272
I0323 23:07:31.356753 31804 layer_factory.hpp:77] Creating layer inception_5b/pool_proj
I0323 23:07:31.356753 31804 net.cpp:91] Creating Layer inception_5b/pool_proj
I0323 23:07:31.356753 31804 net.cpp:425] inception_5b/pool_proj <- inception_5b/pool
I0323 23:07:31.356753 31804 net.cpp:399] inception_5b/pool_proj -> inception_5b/pool_proj
I0323 23:07:31.358752 31804 net.cpp:141] Setting up inception_5b/pool_proj
I0323 23:07:31.358752 31804 net.cpp:148] Top shape: 1 128 7 7 (6272)
I0323 23:07:31.358752 31804 net.cpp:156] Memory required for data: 54911360
I0323 23:07:31.358752 31804 layer_factory.hpp:77] Creating layer inception_5b/relu_pool_proj
I0323 23:07:31.358752 31804 net.cpp:91] Creating Layer inception_5b/relu_pool_proj
I0323 23:07:31.358752 31804 net.cpp:425] inception_5b/relu_pool_proj <- inception_5b/pool_proj
I0323 23:07:31.358752 31804 net.cpp:386] inception_5b/relu_pool_proj -> inception_5b/pool_proj (in-place)
I0323 23:07:31.358752 31804 net.cpp:141] Setting up inception_5b/relu_pool_proj
I0323 23:07:31.358752 31804 net.cpp:148] Top shape: 1 128 7 7 (6272)
I0323 23:07:31.358752 31804 net.cpp:156] Memory required for data: 54936448
I0323 23:07:31.358752 31804 layer_factory.hpp:77] Creating layer inception_5b/output
I0323 23:07:31.358752 31804 net.cpp:91] Creating Layer inception_5b/output
I0323 23:07:31.358752 31804 net.cpp:425] inception_5b/output <- inception_5b/1x1
I0323 23:07:31.358752 31804 net.cpp:425] inception_5b/output <- inception_5b/3x3
I0323 23:07:31.358752 31804 net.cpp:425] inception_5b/output <- inception_5b/5x5
I0323 23:07:31.358752 31804 net.cpp:425] inception_5b/output <- inception_5b/pool_proj
I0323 23:07:31.358752 31804 net.cpp:399] inception_5b/output -> inception_5b/output
I0323 23:07:31.358752 31804 net.cpp:141] Setting up inception_5b/output
I0323 23:07:31.358752 31804 net.cpp:148] Top shape: 1 1024 7 7 (50176)
I0323 23:07:31.358752 31804 net.cpp:156] Memory required for data: 55137152
I0323 23:07:31.358752 31804 layer_factory.hpp:77] Creating layer pool5/7x7_s1
I0323 23:07:31.358752 31804 net.cpp:91] Creating Layer pool5/7x7_s1
I0323 23:07:31.358752 31804 net.cpp:425] pool5/7x7_s1 <- inception_5b/output
I0323 23:07:31.358752 31804 net.cpp:399] pool5/7x7_s1 -> pool5/7x7_s1
I0323 23:07:31.358752 31804 net.cpp:141] Setting up pool5/7x7_s1
I0323 23:07:31.358752 31804 net.cpp:148] Top shape: 1 1024 1 1 (1024)
I0323 23:07:31.358752 31804 net.cpp:156] Memory required for data: 55141248
I0323 23:07:31.358752 31804 layer_factory.hpp:77] Creating layer pool5/drop_7x7_s1
I0323 23:07:31.358752 31804 net.cpp:91] Creating Layer pool5/drop_7x7_s1
I0323 23:07:31.358752 31804 net.cpp:425] pool5/drop_7x7_s1 <- pool5/7x7_s1
I0323 23:07:31.358752 31804 net.cpp:386] pool5/drop_7x7_s1 -> pool5/7x7_s1 (in-place)
I0323 23:07:31.358752 31804 net.cpp:141] Setting up pool5/drop_7x7_s1
I0323 23:07:31.358752 31804 net.cpp:148] Top shape: 1 1024 1 1 (1024)
I0323 23:07:31.358752 31804 net.cpp:156] Memory required for data: 55145344
I0323 23:07:31.358752 31804 layer_factory.hpp:77] Creating layer loss3/classifier
I0323 23:07:31.358752 31804 net.cpp:91] Creating Layer loss3/classifier
I0323 23:07:31.358752 31804 net.cpp:425] loss3/classifier <- pool5/7x7_s1
I0323 23:07:31.358752 31804 net.cpp:399] loss3/classifier -> loss3/classifier
I0323 23:07:31.359752 31804 net.cpp:141] Setting up loss3/classifier
I0323 23:07:31.359752 31804 net.cpp:148] Top shape: 1 35 (35)
I0323 23:07:31.359752 31804 net.cpp:156] Memory required for data: 55145484
I0323 23:07:31.359752 31804 layer_factory.hpp:77] Creating layer softmax
I0323 23:07:31.359752 31804 net.cpp:91] Creating Layer softmax
I0323 23:07:31.359752 31804 net.cpp:425] softmax <- loss3/classifier
I0323 23:07:31.359752 31804 net.cpp:399] softmax -> softmax
I0323 23:07:31.359752 31804 net.cpp:141] Setting up softmax
I0323 23:07:31.359752 31804 net.cpp:148] Top shape: 1 35 (35)
I0323 23:07:31.359752 31804 net.cpp:156] Memory required for data: 55145624
I0323 23:07:31.359752 31804 net.cpp:219] softmax does not need backward computation.
I0323 23:07:31.359752 31804 net.cpp:219] loss3/classifier does not need backward computation.
I0323 23:07:31.359752 31804 net.cpp:219] pool5/drop_7x7_s1 does not need backward computation.
I0323 23:07:31.359752 31804 net.cpp:219] pool5/7x7_s1 does not need backward computation.
…
