Log file created at: 2016/12/15 18:20:23
Running on machine: FALCON-PC
Log line format: [IWEF]mmdd hh:mm:ss.uuuuuu threadid file:line] msg
I1215 18:20:23.899906  3728 caffe.cpp:312] Use CPU.
I1215 18:20:23.904875  3728 net.cpp:313] The NetState phase (0) differed from the phase (1) specified by a rule in layer mnist
I1215 18:20:23.904875  3728 net.cpp:313] The NetState phase (0) differed from the phase (1) specified by a rule in layer accuracy
I1215 18:20:23.905896  3728 net.cpp:49] Initializing net from parameters: 
name: "LeNet"
state {
  phase: TRAIN
}
layer {
  name: "mnist"
  type: "Data"
  top: "data"
  top: "label"
  include {
    phase: TRAIN
  }
  transform_param {
    scale: 0.00390625
  }
  data_param {
    source: "examples/mnist/mnist-train-leveldb"
    batch_size: 64
    backend: LEVELDB
  }
}
layer {
  name: "conv1"
  type: "Convolution"
  bottom: "data"
  top: "conv1"
  param {
    lr_mult: 1
  }
  param {
    lr_mult: 2
  }
  convolution_param {
    num_output: 20
    kernel_size: 5
    stride: 1
    weight_filler {
      type: "xavier"
    }
    bias_filler {
      type: "constant"
    }
  }
}
layer {
  name: "pool1"
  type: "Pooling"
  bottom: "conv1"
  top: "pool1"
  pooling_param {
    pool: MAX
    kernel_size: 2
    stride: 2
  }
}
layer {
  name: "Insanity1"
  type: "Insanity"
  bottom: "pool1"
  top: "pool1"
}
layer {
  name: "conv2"
  type: "Convolution"
  bottom: "pool1"
  top: "conv2"
  param {
    lr_mult: 1
  }
  param {
    lr_mult: 2
  }
  convolution_param {
    num_output: 50
    kernel_size: 5
    stride: 1
    weight_filler {
      type: "xavier"
    }
    bias_filler {
      type: "constant"
    }
  }
}
layer {
  name: "pool2"
  type: "Pooling"
  bottom: "conv2"
  top: "pool2"
  pooling_param {
    pool: MAX
    kernel_size: 2
    stride: 2
  }
}
layer {
  name: "relu2"
  type: "Insanity"
  bottom: "pool2"
  top: "pool2"
}
layer {
  name: "ip1"
  type: "InnerProduct"
  bottom: "pool2"
  top: "ip1"
  param {
    lr_mult: 1
  }
  param {
    lr_mult: 2
  }
  inner_product_param {
    num_output: 500
    weight_filler {
      type: "xavier"
    }
    bias_filler {
      type: "constant"
    }
  }
}
layer {
  name: "relu3"
  type: "Insanity"
  bottom: "ip1"
  top: "ip1"
}
layer {
  name: "ip2"
  type: "InnerProduct"
  bottom: "ip1"
  top: "ip2"
  param {
    lr_mult: 1
  }
  param {
    lr_mult: 2
  }
  inner_product_param {
    num_output: 10
    weight_filler {
      type: "xavier"
    }
    bias_filler {
      type: "constant"
    }
  }
}
layer {
  name: "loss"
  type: "SoftmaxWithLoss"
  bottom: "ip2"
  bottom: "label"
  top: "loss"
}
I1215 18:20:23.912876  3728 layer_factory.hpp:77] Creating layer mnist
I1215 18:20:23.913877  3728 net.cpp:91] Creating Layer mnist
I1215 18:20:23.913877  3728 net.cpp:399] mnist -> data
I1215 18:20:23.914882  3728 net.cpp:399] mnist -> label
F1215 18:20:24.001889  1548 db_leveldb.cpp:16] Check failed: status.ok() Failed to open leveldb examples/mnist/mnist-train-leveldb
Invalid argument: examples/mnist/mnist-train-leveldb: does not exist (create_if_missing is false)
